runs_lstm24_roll/lstm/exp_20260213_171255/ckpts_flat/last_w0007_TR20250826-20250922_VA20250923-20250929.pt (torch, 628653 bytes, 36 tensors)

lstm.weight_ih_l0 f4 [128, 1]
0.10249117 0.012281621 -0.112804264 0.11107095 0.06953187 0.07906717 -0.0042709936 0.08237546
0.05895304 -0.014601801 0.03545618 0.12029728 0.082107805 0.06781069 0.39455518 0.091766685
0.1304501 0.10560115 -0.02696755 0.041463304 -0.05063211 0.037748914 -0.39591828 0.10661443
-0.4104234 -0.046329256 -0.057897113 -0.022126531 0.012138624 0.023004964 0.040243674 -0.07797031
0.27215722 0.045775816 -0.0513682 0.081772976 0.03572716 0.4265889 0.049301986 -0.22727163
0.033894073 0.004466028 0.022233048 0.10227924 0.034386065 -0.121226236 0.3597073 0.053075694
0.16056532 -0.1286037 -0.17822598 -0.24732488 -0.1547184 0.09016979 0.015362247 0.06811782
0.017071797 -0.016629193 0.031375818 -0.027279831 0.053573523 -0.015601007 0.11687474 -0.005819095
0.02390398 -0.019556476 0.7402981 -0.05206795 -0.029662417 0.0017571658 0.12408533 0.021133006
0.06630464 -0.23479597 -0.53536963 -0.048242576 -0.06649619 0.026175752 0.016623307 0.022995703
-0.106054924 -0.020773547 -0.03382752 -0.02748217 0.15636656 -0.08131614 0.15189236 -0.6135241
-0.045519948 0.044283703 0.10562721 -0.07196635 0.024748692 0.06675846 -0.034979094 -0.17935947
0.16240586 -0.0075595076 0.06272441 -0.03773379 -0.025937146 -0.030929366 0.12002998 0.019920174
0.060205176 -0.03742016 -0.2889949 -0.10952473 -0.023722501 0.057839017 0.17087752 0.058027033
0.16358685 0.045584332 0.030451346 0.07631357 0.3904196 -0.05293086 -0.025585484 -0.04531769
0.02437941 0.019733693 0.0946161 0.044369917 -0.2496499 -0.01785315 0.04508244 0.061324485
00000000: e4e6 d13d da38 493c ec05 e7bd 2b79 e33d
00000010: ba66 8e3d f8ed a13d b1f3 8bbb 77b4 a83d
00000020: be78 713d 643c 6fbc 803a 113d 6c5e f63d
00000030: 2328 a83d 55e0 8a3d 2303 ca3e 2cf0 bb3d
00000040: b694 053e 6a45 d83d 0deb dcbc 6dd5 293d
00000050: 9e63 4fbd 9b9e 1a3d cdb5 cabe ab58 da3d
00000060: 0423 d2be bfc3 3dbd 8625 6dbd b342 b5bc
00000070: 14e1 463c e874 bc3c 8dd6 243d e6ae 9fbd
00000080: 3158 8b3e 6c7f 3b3d 7667 52bd 9778 a73d
00000090: a456 123d dc69 da3e e1f0 493d e5b9 68be
000000a0: 83d4 0a3d c257 923b 1522 b63c c777 d13d
000000b0: 67d8 0c3d 7645 f8bd 8e2b b83e e665 593d
000000c0: 3c6b 243e b0b0 03be df80 36be bc42 7dbe
000000d0: 806e 1ebe f0aa b83d efb1 7b3c 5b81 8b3d
000000e0: 27da 8b3c f239 88bc ee83 003d f479 dfbc
000000f0: e96f 5b3d 5e9b 7fbc 065c ef3d 1bae bebb
00000100: 48d2 c33c e734 a0bc 2d84 3d3f 3445 55bd
00000110: 99fe f2bc b350 e63a 7320 fe3d 201f ad3c
00000120: baca 873d 5b6e 70be fc0d 09bf 029a 45bd
00000130: 282f 88bd 886e d63c 9a2d 883c 7c61 bc3c
00000140: 5333 d9bd 492d aabc ba8e 0abd 4a22 e1bc
00000150: 8e1e 203e 1489 a6bd ac89 1b3e ea0f 1dbf
00000160: 2073 3abd d462 353d 1453 d83d 1863 93bd
00000170: c5bd ca3c a9b8 883d 3d46 0fbd 02aa 37be
00000180: b94d 263e bfb5 f7bb a875 803d bf8e 1abd
00000190: 237a d4bc 955f fdbc 47d2 f53d a22f a33c
000001a0: b499 763d e245 19bd 24f7 93be 804e e0bd
000001b0: b155 c2bc 9be8 6c3d 84fa 2e3e c1ad 6d3d
000001c0: 5083 273e a3b6 3a3d 1a75 f93c 4a4a 9c3d
000001d0: 14e5 c73e 08ce 58bd a698 d1bc 0b9f 39bd
000001e0: 54b7 c73c 8ea8 a13c 16c6 c13d 3bbd 353d
000001f0: 39a4 7fbe c540 92bc 5da8 383d 622f 7b3d

lstm.weight_hh_l0 f4 [128, 32]
0.1486986 0.04710891 0.4589933 -0.06646006 -0.12661156 0.040374067 -0.018953018 -0.10590459
-0.18935788 0.00032936665 0.08943622 -0.005501707 0.1088322 -0.115529455 0.22404614 -0.16451852
0.068896696 0.02343565 0.13100739 0.17586783 0.21337499 -0.5563494 0.022607597 -0.40724972
0.039104268 -0.14918014 0.17271101 -0.12874937 0.055789035 0.032918066 0.031981956 -0.1203773
0.27906534 -0.5241831 -0.06853104 -0.16350158 -0.29046115 -0.078991234 -0.37213027 -0.084697664
0.26350614 0.037152786 -0.29363674 -0.49669322 -0.08822652 -0.11866025 -0.36522314 0.14659998
0.061722003 0.15102407 0.035911206 -0.43830812 0.04508039 0.06641199 0.19982722 -0.079488695
-0.12561554 0.6907768 -0.054321866 -0.6263544 0.16696858 0.31745002 0.27665946 0.090264
0.386491 -0.29773143 0.36948037 -0.2185425 -0.32466194 -0.019203747 -0.115752466 -0.090349816
0.15525453 -0.06377228 -0.12114661 -0.16734354 -0.33513868 -0.3696348 -0.089796886 0.15040481
-0.34116888 0.35842708 -0.22162026 -0.26386636 -0.1880557 -0.29537395 0.29927868 -0.18142338
-0.28825042 0.2751442 -0.34612107 -0.42968985 0.20637986 0.46646994 -0.068022564 0.2575442
-0.17293604 0.019119533 -0.011418822 0.28500444 -0.11020487 -0.08542712 -0.017894821 0.0898147
0.0742565 -0.03958023 0.11297571 0.08232918 0.008625201 -0.1339187 -0.3003192 -0.16336183
0.38204518 -0.065980256 -0.019847885 -0.07921559 -0.08324406 -0.27072722 -0.1428862 -0.031734746
-0.020089881 0.12658967 -0.003594131 -0.13080338 -0.065215506 -0.092121154 0.056588486 -0.19010863
0.3086753 -0.4215014 0.26942456 -0.38448235 -0.08240268 -0.13083409 -0.07187776 -0.22923072
0.27568632 0.17767422 -0.20271754 -0.16816187 -0.24592769 -0.3917333 0.17131263 0.038934615
-0.0519707 0.35658553 -0.09319903 -0.20967293 -0.47575212 -0.06068959 0.30350804 -0.34322226
-0.29704586 0.1018793 -0.3445857 -0.26270553 0.049374565 0.13327481 0.009792377 0.39676788
0.23254204 -0.10956164 0.10449342 -0.259793 -0.23725334 0.040452383 0.0119736865 -0.14337792
-0.018234214 -0.28239232 -0.13037857 -0.10827587 -0.06488628 -0.10774026 -0.3460819 0.010034479
-0.42719835 0.20688874 -0.15132283 -0.007083099 -0.1398665 0.05301226 0.2298763 0.2095988
-0.2343209 0.1384803 0.09700261 -0.005313519 0.17257778 0.23261872 0.12667044 0.110566735
0.11669356 -0.26426643 0.44836843 -0.15557148 -0.3021071 -0.23777944 -0.1651194 -0.22496521
0.04847091 -0.08931273 0.100033075 -0.034680925 -0.34399173 -0.2899768 0.20961007 0.10885994
-0.22863132 0.2369741 -0.28503665 -0.1865376 0.22555491 -0.60116637 0.1197478 -0.58585364
-0.37422442 0.09051752 0.16818963 -0.26337504 -0.0048406925 0.23393817 0.21837623 0.33967543
0.34206688 0.10708337 -0.004270523 0.2315089 -0.08279522 0.03879041 -0.24599065 -0.1863729
0.17106992 -0.22887982 -0.26367572 -0.13323493 -0.122289814 -0.21411113 -0.06073435 0.08862438
-0.13992293 0.3578373 -0.060896512 -0.06761942 -0.0425345 -0.2859983 0.066321164 -0.15450478
-0.118409716 0.39318618 0.036257375 -0.47391406 0.35599244 0.2857765 0.35692203 0.30081484
00000000: 7244 183e 46f5 403d 2b01 eb3e 361c 88bd
00000010: 76a6 01be 475f 253d 5c43 9bbc 81e4 d8bd
00000020: 08e7 41be d8ae ac39 562a b73d aa47 b4bb
00000030: 6be3 de3d b59a ecbd 5a6c 653e 8b77 28be
00000040: b619 8d3d 1ffc bf3c cd26 063e b216 343e
00000050: f97e 5a3e ea6c 0ebf 9133 b93c 0983 d0be
00000060: cc2b 203d aec2 18be 28db 303e e0d6 03be
00000070: 0b83 643d 18d5 063d 83ff 023d 6088 f6bd
00000080: a7e1 8e3e dd30 06bf 005a 8cbd f56c 27be
00000090: 53b7 94be 28c6 a1bd dc87 bebe f875 adbd
000000a0: 47ea 863e 852d 183d 8e57 96be 934e febe
000000b0: 1bb0 b4bd 2504 f3bd 87fe babe 4e1e 163e
000000c0: 36d0 7c3d 0ea6 1a3e a117 133d ec69 e0be
000000d0: 37a6 383d 0203 883d 829f 4c3e f8ca a2bd
000000e0: 5ca1 00be c0d6 303f 9b80 5ebd c358 20bf
000000f0: d0f9 2a3e cf88 a23e 4fa6 8d3e 55dc b83d
00000100: 26e2 c53e 4170 98be 882c bd3e 9bc9 5fbe
00000110: 173a a6be 2d51 9dbc a10f edbd 5309 b9bd
00000120: 0bfb 1e3e 0b9b 82bd b71b f8bd 1b5c 2bbe
00000130: 4c97 abbe c640 bdbe 6ee7 b7bd b803 1a3e
00000140: b0ad aebe c183 b73e 6cf0 62be 7e19 87be
00000150: ac91 40be 413b 97be 0e3b 993e 0dc7 39be
00000160: 8f95 93be b3df 8c3e c836 b1be 4f00 dcbe
00000170: 3e55 533e 26d5 ee3e 6a4f 8bbd d5dc 833e
00000180: 2516 31be 91a0 9c3c 0316 3bbc 1aec 913e
00000190: 17b3 e1bd 6af4 aebd 2998 92bc c5f0 b73d
000001a0: cb13 983d e11e 22bd cf5f e73d 339c a83d
000001b0: b750 0d3c fc21 09be 70c3 99be 5348 27be
000001c0: 6d9b c33e a820 87bd 0898 a2bc c93b a2bd
000001d0: dd7b aabd c29c 8abe c350 12be 4bfc 01bd
000001e0: 8993 a4bc b9a0 013e 838b 6bbb 52f1 05be
000001f0: b58f 85bd 04aa bcbd 54c9 673d d6ab 42be
00000200: b00a 9e3e 08cf d7be 04f2 893e dfda c4be
00000210: bcc2 a8bd 5ff9 05be a634 93bd 75bb 6abe
00000220: c226 8d3e 3bf0 353e 3095 4fbe a032 2cbe
00000230: 78d4 7bbe 4491 c8be 946c 2f3e e779 1f3d
00000240: 3bdf 54bd 6192 b63e 22df bebd 80b4 56be
00000250: c895 f3be a695 78bd 6865 9b3e d4ba afbe
00000260: 6516 98be 18a6 d03d 896d b0be 5781 86be
00000270: fc3c 4a3d 3179 083e 3570 203c 2925 cb3e
00000280: 801f 6e3e da61 e0bd a500 d63d 9703 85be
00000290: 8af2 72be 66b1 253d 482d 443c a9d1 12be
000002a0: eb5f 95bc ba95 90be f681 05be bdbf ddbd
000002b0: 19e3 84bd eda6 dcbd a631 b1be a867 243c
000002c0: beb9 dabe a4da 533e 5ff4 1abe 5719 e8bb
000002d0: 2a39 0fbe 6223 593d b164 6b3e 11a1 563e
000002e0: d1f1 6fbe c8cd 0d3e 4ea9 c63d 071d aebb
000002f0: 3bb8 303e 9a33 6e3e e5b5 013e d070 e23d
00000300: 08fd ee3d ee4d 87be 8c90 e53e 214e 1fbe
00000310: c8ad 9abe 747c 73be 0f15 29be 485d 66be
00000320: 6f89 463d 98e9 b6bd 24de cc3d 960d 0ebd
00000330: af1f b0be d777 94be 06a4 563e f6f1 de3d
00000340: 541e 6abe 57a9 723e 53f0 91be b603 3fbe
00000350: def7 663e 0ae6 19bf 563e f53d 81fa 15bf
00000360: 589a bfbe 4061 b93d e739 2c3e 18d9 86be
00000370: ac9e 9ebb 7d8d 6f3e 059e 5f3e f0e9 ad3e
00000380: 6423 af3e 874e db3d beef 8bbb ab10 6d3e
00000390: 8a90 a9bd b1e2 1e3d f9e4 7bbe 8ad8 3ebe
000003a0: f42c 2f3e 795f 6abe 8100 87be bd6e 08be
000003b0: 1573 fabd f33f 5bbe 95c4 78bd b380 b53d
000003c0: f547 0fbe 7336 b73e 9f6e 79bd 0d7c 8abd
000003d0: a838 2ebd 5f6e 92be 64d3 873d 8036 1ebe
000003e0: cb80 f2bd b34f c93e 9d82 143d dda4 f2be
000003f0: a444 b63e 4c51 923e 7cbe b63e 6704 9a3e

lstm.bias_ih_l0 f4 [128]
-0.1768911 -0.029541133 0.40522438 0.025915233 0.22938 -0.055761762 0.33295053 0.027096115
0.15556987 0.357583 0.09202148 0.2156187 0.08540425 0.19303598 0.17810594 0.0553175
0.15468071 0.23514846 0.15270957 0.15605123 0.35917464 0.011419984 0.39011687 0.07598395
0.30581367 0.19679806 0.31236944 0.29275823 0.37143904 0.35068452 0.015056837 0.25587484
0.08037464 0.12082631 0.23632558 0.19608486 0.04072191 0.02734518 0.10112086 0.3212916
0.022677401 0.41276762 -0.116669334 -0.03951491 -0.07375984 0.23566091 0.29908174 0.24773692
0.039868195 0.0032913587 0.29097188 0.06485434 0.42691502 0.06418758 0.21720774 0.22951962
0.14473003 0.0066933003 0.13786975 0.048716307 0.17874198 0.25389063 0.024014074 0.33208618
0.13669686 0.12444481 -0.10231935 0.21442088 -0.07426909 0.11714775 -0.17612767 -0.17619142
0.02973866 -0.018289976 -0.14485694 -0.062164236 0.040436845 -0.14830501 -0.1058946 -0.018191675
-0.01903056 0.36698085 -0.19101967 -0.0352917 0.0709746 -0.09907162 0.015791684 0.030070374
-0.12230665 0.29434228 -0.21234234 -0.06483574 -0.16365808 0.29174376 0.16119602 -0.0021576015
0.22987904 0.21442404 0.20714301 0.33064377 0.112666875 0.2012608 0.1309369 -0.005982631
0.078241214 0.44130883 0.1502483 -0.008519777 0.14636424 0.41757032 0.014360279 0.0023992409
-0.06307441 0.3352297 0.1164193 0.17777339 0.3897849 0.2728155 0.29250816 0.19753353
0.16509353 0.35367066 0.060551763 0.2503071 0.0051270174 0.34384862 0.04853799 0.2876951
00000000: f122 35be 3f00 f2bc 9279 cf3e 2f4c d43c
00000010: 97e2 6a3e 7266 64bd 7e78 aa3e acf8 dd3c
00000020: b54d 1f3e 1e15 b73e c275 bc3d 26cb 5c3e
00000030: 6ce8 ae3d 39ab 453e 6761 363e 9a94 623d
00000040: 9f64 1e3e c2ca 703e e65f 1c3e e5cb 1f3e
00000050: bde5 b73e e21a 3b3c 66bd c73e 799d 9b3d
00000060: 9c93 9c3e 6e85 493e e3ee 9f3e 68e4 953e
00000070: 422d be3e ec8c b33e f4b0 763c 0702 833e
00000080: 769b a43d c973 f73d 55ff 713e 78ca 483e
00000090: 04cc 263d 0003 e03c 7418 cf3d 5580 a43e
000000a0: f5c5 b93c 4756 d33e 55f0 eebd 63da 21bd
000000b0: 660f 97bd 1851 713e 3e21 993e bfae 7d3e
000000c0: d54c 233d d6b3 573b 44fa 943e 5ad2 843d
000000d0: 9b94 da3e c774 833d b56b 5e3e 3107 6b3e
000000e0: 1c34 143e 7953 db3b ba2d 0d3e c08a 473d
000000f0: 2308 373e f4fd 813e 2ab9 c43c 3307 aa3e
00000100: 43fa 0b3e ecdc fe3d cf8c d1bd 2691 5b3e
00000110: 651a 98bd 29eb ef3d d05a 34be 866b 34be
00000120: 7e9e f33c dcd4 95bc 6155 14be ed9f 7ebd
00000130: 1ba1 253d 45dd 17be 45df d8bd b506 95bc
00000140: fae5 9bbc eae4 bb3e a99a 43be 088e 10bd
00000150: 225b 913d 10e6 cabd 905d 813c 2556 f63c
00000160: e97b fabd 08b4 963e 4570 59be 9ac8 84bd
00000170: fc95 27be 705f 953e 9210 253e 8c66 0dbb
00000180: 6965 6b3e fa91 5b3e 4c1d 543e 244a a93e
00000190: e4bd e63d 5017 4e3e 5314 063e f209 c4bb
000001a0: ee3c a03d 3bf3 e13e b1da 193e 8996 0bbc
000001b0: 82e0 153e c7cb d53e 6047 6b3c 953c 1d3b
000001c0: 282d 81bd 3aa3 ab3e 3e6d ee3d 3a0a 363e
000001d0: e391 c73e 79ae 8b3e a1c3 953e 3b46 4a3e
000001e0: 470e 293e 5214 b53e 2005 783d 4128 803e
000001f0: 8a00 a83b ed0c b03e c5cf 463d c64c 933e

lstm.bias_hh_l0 f4 [128]
-0.0591561 0.1918657 0.30499604 -0.12155832 0.30134234 0.21928418 0.08588686 0.029279085
-0.043483496 0.29284006 0.063983314 0.1420694 0.13122799 0.1958713 0.14688627 0.20005016
-0.02655403 0.23398556 0.107857145 -0.024566254 0.16264088 0.2067907 0.09532169 0.23199722
0.27409258 0.12081576 0.046809837 0.10102924 0.42709824 0.31740916 -0.0706493 0.45023456
0.057033874 -0.15343937 0.24885331 -0.04616078 -0.0011345665 0.21915902 0.17842023 0.07967759
0.21852872 0.13968356 -0.005716804 0.022480011 0.20451051 0.3445222 0.11408104 0.23716617
-0.054558083 0.13466968 0.31972864 0.21922615 0.14245254 0.19734521 0.2401808 0.22538014
0.05113989 0.3231952 -0.009005959 0.051088255 0.13186288 0.3158008 0.1165418 0.057617422
0.20342594 -0.1232914 -0.16661166 0.086862504 -0.27134845 -0.015311407 -0.36703855 0.10494866
0.06199853 -0.15570857 0.013338506 -0.12231944 -0.23713803 -0.2755345 -0.27081093 0.08003189
-0.0015573598 0.17314349 -0.32570332 0.05830824 -0.048554722 -0.07230551 0.1616684 0.1612099
-0.19340742 0.29828814 -0.090160504 -0.015567451 -0.014174591 0.09601788 0.24078573 0.23835482
0.046704996 0.11063929 -0.12968104 0.28969228 0.08294753 -0.104319796 0.049275864 -0.14044069
-0.118467085 0.42337254 0.19562732 0.31853086 0.11705054 0.18058957 0.014640391 0.090854295
-0.049059384 0.45864666 0.09978009 0.16351278 0.48099262 0.1340205 0.3054438 0.06907409
0.04486001 0.14354286 0.19336854 0.09086938 0.025673144 0.036699306 0.059871957 0.27469027
00000000: ab4d 72bd 7178 443e 7128 9c3e 92f3 f8bd
00000010: 8b49 9a3e 088c 603e 73e5 af3d b1da ef3c
00000020: c01b 32bd 22ef 953e af09 833d a47a 113e
00000030: a160 063e 7c92 483e 5b69 163e f3d9 4c3e
00000040: d687 d9bc e999 6f3e 35e4 dc3d 2b3f c9bc
00000050: 558b 263e f1c0 533e 0538 c33d ae90 6d3e
00000060: dd55 8c3e 416e f73d acbb 3f3d 6be8 ce3d
00000070: 9fac da3e 7483 a23e 95b0 90bd 2585 e63e
00000080: 5a9c 693d 361f 1dbe 67d3 7e3e 1613 3dbd
00000090: bcb5 94ba 396b 603e cbb3 363e 012e a33d
000000a0: fec5 5f3e 3509 0f3e 0754 bbbb 0028 b83c
000000b0: 346b 513e 3765 b03e 52a3 e93d b0db 723e
000000c0: 4c78 5fbd d9e6 093e 79b3 a33e d27c 603e
000000d0: 14df 113e dd14 4a3e f5f1 753e 0dca 663e
000000e0: 1078 513d d779 a53e bb8d 13bc eb41 513d
000000f0: 1007 073e a4b0 a13e 78ad ee3d 3f00 6c3d
00000100: e44e 503e 3480 fcbd 3f9c 2abe f8e4 b13d
00000110: 2fee 8abe b2dc 7abc 7aec bbbe 53ef d63d
00000120: 2cf2 7d3d 1172 1fbe c089 5a3c 9d82 fabd
00000130: 50d4 72be dc12 8dbe bba7 8abe c2e7 a33d
00000140: 5320 ccba 874c 313e 96c2 a6be 9fd4 6e3d
00000150: 51e1 46bd e914 94bd 678c 253e 3514 253e
00000160: 980c 46be 39b9 983e 12a6 b8bd 9f0e 7fbc
00000170: 8b3c 68bc 06a5 c43d 8990 763e 4913 743e
00000180: bd4d 3f3d da96 e23d 1bcb 04be 8c52 943e
00000190: 65e0 a93d 9ea5 d5bd 7dd5 493d afcf 0fbe
000001a0: df9e f2bd 49c4 d83e 8752 483e 7a16 a33e
000001b0: 32b8 ef3d 79ec 383e 40de 6f3c d111 ba3d
000001c0: 7ef2 48bd bcd3 ea3e 8159 cc3d e56f 273e
000001d0: aa44 f63e ac3c 093e 2163 9c3e b776 8d3d
000001e0: 21bf 373d e6fc 123e 6702 463e ba19 ba3d
000001f0: 7c50 d23c 0352 163d 4c3c 753d 34a4 8c3e

exog_mlp.0.weight f4 [128, 144]
-0.27192736 -0.07432439 0.082773544 0.6630644 -0.29469332 0.8602951 -0.16805358 -0.09305138
-0.03256694 0.6845271 -0.021220809 0.9517486 -0.19073127 -0.016051097 0.124784745 0.46571103
0.18018378 0.8315521 -0.100969695 0.017847538 0.00330121 0.40432224 0.46924505 0.7790995
-0.077924155 -0.055741034 0.05765727 0.3956619 0.5003219 0.6703366 -0.04536479 -0.02936185
0.07876648 0.36347857 0.67744404 0.37345907 -0.064823486 -0.06733798 0.03097699 0.33413762
0.7874063 0.19551216 -0.062783025 -0.035307612 0.056336578 0.11057465 0.92610574 0.047720037
0.0016442946 0.04539477 0.071646035 0.13642544 0.9066026 -0.1348814 0.079674825 0.04861059
0.09217495 0.01341455 0.7470956 -0.37299237 0.042434607 0.09789376 0.0077201473 0.139798
0.69561094 -0.5778367 0.08355158 0.008309753 -0.048288304 0.21835266 0.49366626 -0.80219513
-0.022987932 0.14071913 -0.036473684 0.29319963 0.21625772 -0.90432936 -0.058100328 0.04262269
-0.12211116 0.3361045 0.041959718 -0.97851783 0.07741433 0.10020918 0.0059429286 0.27111027
-0.14941294 -0.969608 0.06830436 0.023722522 0.03326668 0.3251581 -0.35444373 -0.87271184
0.0010937625 0.033955913 -0.0203896 0.29021958 -0.6039052 -0.6298651 0.09281915 0.030088853
0.114645325 0.2932065 -0.7720654 -0.453589 0.040601783 0.0616043 0.09678702 0.2756044
-0.92151964 -0.27292877 0.04940274 -0.06256446 0.032227527 0.22564411 -0.8838599 -0.021220414
0.06037404 -0.036649898 -0.024309387 0.10212343 -0.95367616 0.22039473 -0.032542277 -0.03759876
-0.016230673 -0.2501215 -0.7802419 0.3370263 -0.06432431 0.03625374 0.04422649 -0.49067694
-0.69804406 0.5121279 -0.1333014 -0.06986167 0.02422963 -0.6712068 -0.39911377 0.74503607
0.05642841 0.038901974 0.109788954 -0.5496414 0.14464855 -0.6515349 0.07203803 0.051894102
0.017546747 -0.5660304 -0.051691975 -0.60427773 0.0891788 0.046899773 -0.007067334 -0.340448
-0.17438525 -0.58893216 0.02566299 -0.099150285 0.079786286 -0.28237635 -0.36257327 -0.48970821
0.027715141 0.024340952 0.05385779 -0.30930063 -0.49389324 -0.44342348 -0.0516489 0.022707231
0.114868715 -0.17807437 -0.6226775 -0.32215476 0.04304936 -0.06482048 -0.006715882 -0.15934102
-0.6150811 -0.26290038 0.028640427 -0.0066242637 -0.0131002385 -0.06849083 -0.69500995 0.03542041
0.03767431 -0.021747055 -0.0053927694 0.05211586 -0.5521126 0.17550565 -0.04542599 -0.014540437
-0.03575009 0.07729447 -0.6203783 0.3100515 0.005544996 -0.10870044 0.06262543 0.14203636
-0.54253507 0.47250953 -0.048599232 -0.093815856 0.071542926 0.16759017 -0.32997844 0.52748686
0.09294619 -0.15234329 0.100297675 0.19876738 -0.14436539 0.63552266 0.06668953 -0.094853364
0.13990714 0.1768284 -0.0018974879 0.73766017 -0.019809099 -0.14228773 0.13926484 0.049414214
0.07050578 0.662115 -0.076365285 -0.15723363 0.11019899 -0.16426755 0.2936788 0.63724023
0.069037884 -0.039998777 -0.018408034 -0.1536592 0.45344186 0.5405639 -0.056595393 -0.07489746
0.084641404 -0.18124166 0.50403064 0.43757018 -0.06086289 -0.031186398 -0.01718494 -0.19750232
00000000: 103a 8bbe 6337 98bd 2d85 a93d 97be 293f
00000010: 0be2 96be 4d3c 5c3f 3d16 2cbe b991 bebd
00000020: e964 05bd 2b3d 2f3f 43d7 adbc cca5 733f
00000030: 0f4f 43be 977d 83bc 258f ff3d ad71 ee3e
00000040: 1982 383e 99e0 543f 33c9 cebd 0035 923c
00000050: 1d59 583b 5303 cf3e e340 f03e 1173 473f
00000060: b396 9fbd b650 64bd 082a 6c3d 3294 ca3e
00000070: 1915 003f 2e9b 2b3f 6ed0 39bd 4388 f0bc
00000080: 5250 a13d dd19 ba3e f96c 2d3f 0736 bf3e
00000090: 2dc2 84bd 7fe8 89bd 75c3 fd3c 1614 ab3e
000000a0: 7693 493f 5734 483e 6394 80bd b79e 10bd
000000b0: 2fc1 663d f674 e23d 4415 6d3f 1676 433d
000000c0: 5f85 d73a deef 393d 28bb 923d 1cb3 0b3e
000000d0: 1c17 683f 5a1e 0abe 8e2c a33d e61b 473d
000000e0: 38c6 bc3d b3c8 5b3c a841 3f3f dbf8 bebe
000000f0: e9cf 2d3d 867c c83d 4af9 fc3b 3527 0f3e
00000100: 8f13 323f 1bed 13bf 171d ab3d a125 083c
00000110: f5c9 45bd d797 5f3e d3c1 fc3e a95c 4dbf
00000120: 3051 bcbc ad18 103e 6e65 15bd 431e 963e
00000130: aa72 5d3e 2182 67bf 9cfa 6dbd 2195 2e3d
00000140: 6a15 fabd e415 ac3e f4dd 2b3d 2580 7abf
00000150: 678b 9e3d 783a cd3d e6bc c23b f7ce 8a3e
00000160: b5ff 18be 3b38 78bf 28e3 8b3d bc55 c23c
00000170: a442 083d 1f7b a63e a679 b5be 0b6a 5fbf
00000180: 945c 8f3a 5b15 0b3d 1708 a7bc a997 943e
00000190: 8899 1abf d73e 21bf f717 be3d e67c f63c
000001a0: 2bcb ea3d 2a1f 963e 14a6 45bf d13c e8be
000001b0: 0e4e 263d ca54 7c3d 4638 c63d 051c 8d3e
000001c0: b6e8 6bbf 52bd 8bbe 875a 4a3d cc21 80bd
000001d0: 0301 043d 400f 673e a444 62bf 6fd6 adbc
000001e0: c54a 773d 341e 16bd 7b24 c7bc 1726 d13d
000001f0: 1f24 74bf 28af 613e 0d4b 05bd 2801 1abd
00000200: 30f6 84bc ed0f 80be efbd 47bf b68e ac3e
00000210: 77bc 83bd cd7e 143d d626 353d 023a fbbe
00000220: 04b3 32bf d01a 033f 2a80 08be a313 8fbd
00000230: 387d c63c 35d4 2bbf a458 ccbe afba 3e3f
00000240: 7a21 673d ad57 1f3d 08d9 e03d 4cb5 0cbf
00000250: c01e 143e feca 26bf ad88 933d e98e 543d
00000260: 32be 8f3c 5ee7 10bf f7ba 53bd f2b1 1abf
00000270: 60a3 b63d fa19 403d 1895 e7bb 334f aebe
00000280: 0c92 32be 42c4 16bf 313b d23c 4e0f cbbd
00000290: fe66 a33d a293 90be 34a3 b9be 09bb fabe
000002a0: dd0a e33c ad66 c73c fc99 5c3d a75c 9ebe
000002b0: 93df fcbe 6708 e3be cc8d 53bd 8404 ba3c
000002c0: 4a40 eb3d 2159 36be cb67 1fbf 78f1 a4be
000002d0: 8754 303d 9ac0 84bd e710 dcbb 4b2a 23be
000002e0: f475 1dbf e19a 86be 549f ea3c 5a10 d9bb
000002f0: 62a2 56bc ec44 8cbd 2cec 31bf fe14 113d
00000300: 6150 1a3d e126 b2bc d4b5 b0bb 7177 553d
00000310: 4057 0dbf c1b7 333e 9a10 3abd 033b 6ebc
00000320: b06e 12bd 904c 9e3d 1dd1 1ebf 12bf 9e3e
00000330: ccb2 b53b 569e debd c341 803d fb71 113e
00000340: 94e3 0abf c5ec f13e fd0f 47bd 8722 c0bd
00000350: 1985 923d c29c 2b3e eff2 a8be 6109 073f
00000360: 925a be3d e1ff 1bbe de68 cd3d ad89 4b3e
00000370: 85d4 13be 9db1 223f 8594 883d 7b42 c2bd
00000380: d143 0f3e 8112 353e 21b5 f8ba 4cd7 3c3f
00000390: b146 a2bc e0b3 11be 719b 0e3e 8f66 4a3d
000003a0: 5665 903d 5e80 293f 6765 9cbd da01 21be
000003b0: 02b0 e13d c135 28be 115d 963e 2d22 233f
000003c0: bc63 8d3d c2d5 23bd 72cc 96bc d658 1dbe
000003d0: 8829 e83e 6562 0a3f 92d0 67bd d763 99bd
000003e0: 7958 ad3d 6a97 39be 2708 013f 3309 e03e
000003f0: 5e4b 79bd 9e7a ffbc 6ec7 8cbc 0c3e 4abe

exog_mlp.0.bias f4 [128]
0.04709716 -0.15082328 0.012627634 -0.052964892 0.04915445 0.0064004636 -0.0068037463 0.020447839
0.05845065 0.013927182 0.037694752 0.030789116 -0.010172591 0.069179915 -0.1371176 -0.013208601
0.005905675 -0.05398634 -0.0462089 0.013217172 -0.09637141 -0.05166368 0.03520038 -0.06196657
-0.022178045 -0.053939458 0.043249175 0.017402783 0.07051153 0.0059884186 -0.08687678 0.014830748
-0.016209725 0.021997392 0.05476915 -0.03622585 0.07650523 -0.054103225 0.037405554 -0.06673843
-0.07212969 0.105705015 -0.0025132936 0.049562417 0.0010025315 -0.046300493 -0.056364205 -0.010360916
0.041768845 0.08483432 0.087710135 -0.026453873 -0.018293792 -0.053924125 0.019122887 0.10690467
-0.020486712 0.07639165 -0.0814584 0.053742997 0.061323136 0.06458164 0.020978184 0.03348075
-0.0130799515 -0.0077996296 -0.0028544054 -0.067398466 0.09714379 0.0008860938 -0.08785886 0.052072782
-0.03841488 0.0019269611 -0.030289425 0.100991525 0.020137692 0.07729814 -0.076769486 -0.049571425
0.029694023 -0.03555045 -0.08517107 0.0037494542 -0.037931878 -0.022846311 0.04440108 -0.006830537
0.13317013 -0.032241095 -0.011477461 0.061319772 -0.0707757 0.007604514 0.020720834 -0.07688329
-0.06869386 0.06565915 -0.06118891 0.069478236 -0.09404554 0.07123436 -0.08464205 -0.07649564
0.121002406 0.03186336 0.0053912494 -0.04814436 0.10050928 0.09113819 -0.05849273 -0.07015852
0.05562573 0.05368067 0.023371626 0.05487187 -0.008462489 0.011987041 0.057106107 -0.010631736
-0.050904468 0.10647411 -0.09899245 0.015223793 0.033098117 0.001602583 0.044765674 0.012476762
00000000: f4e8 403d 6b71 1abe 23e4 4e3c b7f1 58bd
00000010: 2d56 493d fbba d13b f6f1 debb 3a82 a73c
00000020: f369 6f3d d62e 643c d065 1a3d 7539 fc3c
00000030: f0aa 26bc 33ae 8d3d 8e68 0cbe e368 58bc
00000040: 6484 c13b c820 5dbd 8b45 3dbd d68c 583c
00000050: 605e c5bd 4b9d 53bd 462e 103d a8d0 7dbd
00000060: bbae b5bc 9fef 5cbd 0c26 313d 4890 8e3c
00000070: 5968 903d 7f3a c43b 74ec b1bd aafc 723c
00000080: 42ca 84bc e033 b43c 9e55 603d 8f61 14bd
00000090: c6ae 9c3d 589b 5dbd 9136 193d 28ae 88bd
000000a0: bbb8 93bd df7b d83d 12b6 24bb f601 4b3d
000000b0: 6067 833a 96a5 3dbd 27de 66bd d5c0 29bc
000000c0: cf15 2b3d 9ebd ad3d 5fa1 b33d cbb5 d8bc
000000d0: dddc 95bc 8bdf 5cbd 9aa7 9c3c d6f0 da3d
000000e0: c0d3 a7bc 3a73 9c3d a9d3 a6bd 9e21 5c3d
000000f0: f82d 7b3d 6143 843d 71da ab3c 1c23 093d
00000100: 4b4d 56bc 0994 ffbb fa10 3bbb 3508 8abd
00000110: 53f3 c63d c048 683a 59ef b3bd 454a 553d
00000120: ec58 1dbd 1692 fc3a 8721 f8bc a5d4 ce3d
00000130: cdf7 a43c 7d4e 9e3d 5239 9dbd 680b 4bbd
00000140: e140 f33c 599d 11bd 2c6e aebd 67b9 753b
00000150: 755e 1bbd 3028 bbbc e8dd 353d b3d2 dfbb
00000160: c05d 083e 3d0f 04bd f60b 3cbc 712a 7b3d
00000170: daf2 90bd 492f f93b bdbe a93c fd74 9dbd
00000180: 5eaf 8cbd 4e78 863d 39a1 7abd 9b4a 8e3d
00000190: f39a c0bd 52e3 913d d058 adbd bfa9 9cbd
000001a0: 1cd0 f73d 2883 023d 14a9 b03b 0533 45bd
000001b0: cfd7 cd3d a9a6 ba3d 1396 6fbd 45af 8fbd
000001c0: ced7 633d 43e0 5b3d da75 bf3c 53c1 603d
000001d0: 40a6 0abc 4b65 443c 18e8 693d bc30 2ebc
000001e0: 3481 50bd 190f da3d 8ebc cabd 376d 793c
000001f0: e491 073d c30d d23a 365c 373d 556b 4c3c

exog_mlp.2.weight f4 [64, 128]
-0.060760986 0.016025128 0.053314455 0.07967126 -0.05066148 0.053073667 0.08731876 -0.002566881
-0.08502793 -0.014328392 0.029419655 -0.049614683 0.30184224 0.031723365 0.06823152 0.099008895
-0.15008861 0.11015725 0.023339037 0.12479554 0.11567024 -0.020387482 -0.013722107 0.011759328
0.037700195 0.00015335174 -0.0289071 0.262582 0.0090287365 0.016835228 0.14790246 0.04934768
0.06499139 -0.052174516 0.04016193 0.1957101 -0.0723095 0.032763157 -0.04221975 0.14575128
-0.13379404 0.058184452 0.07931199 -0.14979406 -0.021604683 0.035873234 -0.05782443 -0.026894521
-0.13971275 -0.35945013 -0.117114924 0.06660563 -0.012521368 -0.08684661 0.07049964 -0.21938938
-0.028240293 -0.001224329 -0.073556185 0.13037027 -0.0669194 -0.04508718 0.0156094525 0.082500674
0.11357757 0.14475247 0.054922886 0.06753497 -0.11983114 -0.036417425 0.024339825 -0.07816898
0.14612208 -0.0106065115 0.08186926 -0.038666986 0.049897775 -0.06157673 -0.04622274 0.12133455
-0.09568951 -0.009059747 0.15998724 0.033054113 0.026353883 -0.10662754 0.022159195 0.05746052
0.09397905 -0.021476598 -0.012132569 0.16218835 -0.08096716 -0.07449542 0.04509246 0.060328767
0.026694326 0.060711663 -0.05968346 0.085069954 0.10170632 -0.043305673 0.016211692 -0.018073715
-0.006353938 0.054817576 0.08292264 0.0036932412 -0.06915294 0.033060953 0.054153197 0.10173722
0.030540468 -0.030400658 0.07010897 -0.013854252 -0.08160372 -0.048735227 -0.15317142 0.07517592
0.11489825 0.012270867 0.0152368825 0.18750927 -0.08505419 0.049344067 -0.07650788 -0.15884301
-0.029073216 0.076738186 0.0862645 -0.0011083082 -0.014000038 0.045759726 0.0744242 0.124131106
0.05601441 0.017104348 0.044283364 -0.042739797 -0.75696796 -0.536023 0.065808855 -0.15575217
-0.04848204 0.099215366 -0.027144022 -0.0019339 -0.060401604 -0.038604435 -0.08326043 -0.080465175
0.059160735 0.03168266 0.08655782 0.008553664 -0.07805298 0.13135825 0.12799792 -0.33123413
0.0875978 -0.07290669 -0.06411594 0.008981134 -0.055039164 -0.1291922 -0.04540759 0.008293954
0.2797715 -0.14602378 0.10029138 0.10680814 0.08289029 -0.07690824 0.049047556 0.070154116
-0.2017686 0.13553533 0.14974031 0.023612643 0.057151087 -0.08643839 -0.056438554 0.28326553
0.06491246 -0.3123937 -0.045066066 0.041762598 -0.017484145 0.03008896 -0.005912331 0.07272075
-0.014029572 -0.053587593 0.01712538 0.33556497 -0.22634935 -0.07296214 0.14797452 -0.07082994
-0.21527666 0.03486954 -0.09377014 0.11433433 0.10470553 0.0075559756 0.04949542 -0.13155456
0.0050979536 0.032931596 -0.10894079 -0.006365851 0.035849262 0.3626913 -0.03959726 0.082876034
0.028572576 -0.056683093 -0.0702494 0.011161018 0.054835457 -0.07368328 -0.035308987 0.13277929
-0.055833824 -0.04858449 -0.003765623 0.08648863 0.13001028 0.045600094 0.20678946 -0.044281814
-0.19721715 0.046942607 0.060609523 -0.09001251 0.041594017 -0.35337874 0.012085829 0.024331465
-0.006685496 -0.012300097 -0.051651116 -0.04857389 -0.025630033 0.034298006 0.16495608 0.2400975
-0.065195054 -0.07586463 0.09529872 -0.14559694 -0.055812273 0.24940784 -0.059891183 -0.2800649
00000000: 83e0 78bd 2147 833c 4260 5a3d b02a a33d
00000010: 6982 4fbd c663 593d 2ed4 b23d 1e39 28bb
00000020: 2023 aebd a2c1 6abc 7d01 f13c c438 4bbd
00000030: 118b 9a3e 5cf0 013d f8bc 8b3d 2dc5 ca3d
00000040: d4b0 19be 209a e13d 8231 bf3c ce94 ff3d
00000050: 85e4 ec3d a603 a7bc b0d2 60bc 32aa 403c
00000060: 856b 1a3d 0bcd 2039 95ce ecbc 2671 863e
00000070: 44ed 133c 08ea 893c be73 173e cb20 4a3d
00000080: 351a 853d f2b4 55bd d680 243d 3a68 483e
00000090: 0117 94bd a932 063d 9eee 2cbd d33f 153e
000000a0: 4e01 09be d252 6e3d 536e a23d 9d63 19be
000000b0: 4efc b0bc d0ef 123d 4fd9 6cbd e651 dcbc
000000c0: dc10 0fbe d909 b8be f3d9 efbd 8868 883d
000000d0: 6d26 4dbc a3dc b1bd 1e62 903d 9ca7 60be
000000e0: 3058 e7bc aa79 a0ba a0a4 96bd c97f 053e
000000f0: 0a0d 89bd 56ad 38bd cabe 7f3c 1df6 a83d
00000100: 5b9b e83d fe39 143e d2f6 603d c64f 8a3d
00000110: 076a f5bd 702a 15bd 5064 c73c 0f17 a0bd
00000120: 07a1 153e efc6 2dbc 12ab a73d 4661 1ebd
00000130: 9c61 4c3d e237 7cbd 0e54 3dbd 407e f83d
00000140: ddf8 c3bd 556f 14bc b2d3 233e c063 073d
00000150: 19e4 d73c 8a5f dabd 3387 b53c b95b 6b3d
00000160: 1778 c03d b1ef afbc afc7 46bc b414 263e
00000170: 1cd2 a5bd 0e91 98bd dfb2 383d 4c1b 773d
00000180: 0fae da3c cbac 783d a576 74bd 2839 ae3d
00000190: 674b d03d 4a61 31bd 62ce 843c 540f 94bc
000001a0: b234 d0bb 6588 603d 58d3 a93d 4e0a 723b
000001b0: 0ea0 8dbd ec6a 073d becf 5d3d 9b5b d03d
000001c0: 0130 fa3c cd0a f9bc 4b95 8f3d f2fc 62bc
000001d0: da1f a7bd 979e 47bd f8d8 1cbe d5f5 993d
000001e0: c64f eb3d bf0b 493c 1ea4 793c 6e02 403e
000001f0: e430 aebd 011d 4a3d 2ab0 9cbd bea7 22be
00000200: f42a eebc e928 9d3d 71ab b03d a744 91ba
00000210: 6a60 65bc 8d6e 3b3d b76b 983d 7338 fe3d
00000220: 5e6f 653d 6b1e 8c3c 7962 353d ed0f 2fbd
00000230: a7c8 41bf ce38 09bf cbc6 863d 7f7d 1fbe
00000240: 1b95 46bd 6d31 cb3d 245d debc eb7a fdba
00000250: ac67 77bd af1f 1ebd 7284 aabd edca a4bd
00000260: 8752 723d adc5 013d 3a45 b13d ab24 0c3c
00000270: 3eda 9fbd c782 063e e311 033e 8597 a9be
00000280: 7a66 b33d 1a50 95bd 384f 83bd 9b25 133c
00000290: bf70 61bd f64a 04be 4ffd 39bd 5de3 073c
000002a0: 363e 8f3e 4287 15be 9165 cd3d 3abe da3d
000002b0: 62c2 a93d 1182 9dbd 17e6 483d f6ac 8f3d
000002c0: 6e9c 4ebe c6c9 0a3e 8655 193e 4d6f c13c
000002d0: 4217 6a3d 9c06 b1bd 1d2c 67bd 2e08 913e
000002e0: d3f0 843d 11f2 9fbe 3297 38bd 420f 2b3d
000002f0: e93a 8fbc 1f7d f63c 3abc c1bb 9eee 943d
00000300: 4adc 65bc aa7e 5bbd 864a 8c3c 2ccf ab3e
00000310: 20c8 67be 2d6d 95bd a286 173e 4a0f 91bd
00000320: 7c71 5cbe 5dd3 0e3d 8f0a c0bd 1e28 ea3d
00000330: da6f d63d 1e98 f73b b6bb 4a3d 3db6 06be
00000340: bc0c a73b 48e3 063d 591c dfbd a198 d0bb
00000350: add6 123d adb2 b93e bd30 22bd e9ba a93d
00000360: 0911 ea3c 882c 68bd ebde 8fbd b4dc 363c
00000370: 259b 603d 42e7 96bd 28a0 10bd 4bf7 073e
00000380: 02b2 64bd 8800 47bd acc8 76bb f320 b13d
00000390: 6a21 053e 2ac7 3a3d 9ec0 533e d960 35bd
000003a0: 4bf3 49be e446 403d b141 783d 7b58 b8bd
000003b0: 7d5e 2a3d 0fee b4be a403 463c c852 c73c
000003c0: 0112 dbbb 5986 49bc 1f90 53bd 6af5 46bd
000003d0: 13f6 d1bc 117c 0c3d 3fea 283e 1edc 753e
000003e0: fc84 85bd ea5e 9bbd fa2b c33d 5d17 15be
000003f0: 699b 64bd c564 7f3e 7550 75bd ab64 8fbe

exog_mlp.2.bias f4 [64]
0.004777467 0.02360691 0.06638558 -0.045765705 0.07540187 0.003507407 -0.011198448 -0.04735354
0.02866382 -0.019815179 -0.029573543 0.02895821 0.011392465 -0.02910603 -0.11539808 0.0043475553
0.0019620934 0.003192995 0.098994054 0.06352745 0.082707465 -0.061599646 0.025525406 0.0649421
-0.022981081 0.006959588 0.041255515 0.074080996 0.04465008 0.09871113 0.1735824 0.0735176
-0.0769144 0.13233566 0.017430246 0.0456789 -0.05648045 -0.029939739 0.0061115627 0.03939454
0.07431525 -0.083381504 0.020690346 0.04076347 0.05496462 0.010257271 0.025007626 -0.05528951
0.1356938 0.01579397 0.044566803 0.034433704 0.017036323 -0.0027299908 0.11877914 -0.048323013
0.054052066 -0.021378472 -0.081925906 0.123844534 -0.09362762 -0.05646863 -0.08658752 0.06602144
00000000: 4c8c 9c3b 4763 c13c 2af5 873d d274 3bbd
00000010: 4c6c 9a3d 86dc 653b b279 37bc c9f5 41bd
00000020: 63d0 ea3c 7153 a2bc 3744 f2bc c539 ed3c
00000030: 76a7 3a3c c56f eebc d455 ecbd f075 8e3b
00000040: 7796 003b 9141 513b 65bd ca3d ae1a 823d
00000050: 8862 a93d e94f 7cbd a81a d13c 5d00 853d
00000060: d242 bcbc 410d e43b 8bfb 283d c7b7 973d
00000070: 01e3 363d 1029 ca3d 96bf 313e 6590 963d
00000080: 4c85 9dbd 0083 073e e0c9 8e3c cc19 3b3d
00000090: 0b58 67bd 2f44 f5bc 8143 c83b 2b5c 213d
000000a0: 9832 983d ecc3 aabd cd7e a93c 99f7 263d
000000b0: 9522 613d 1d0e 283c cbdc cc3c 4177 62bd
000000c0: 51f3 0a3e 5b62 813c ae8b 363d 5b0a 0d3d
000000d0: c28f 8b3c a5e9 32bb 7a42 f33d 5aee 45bd
000000e0: b365 5d3d e821 afbc c5c8 a7bd 34a2 fd3d
000000f0: d6bf bfbd a64b 67bd cc54 b1bd 4036 873d

head.0.weight f4 [128, 128]
0.13476184 -0.024187474 -0.029223947 -0.04710769 -0.11047441 0.3111399 -0.048320163 -0.16095024
-0.039100323 -0.42299137 -0.031758722 0.0017156826 -0.13965382 -0.3168649 -0.0020397482 0.09065067
0.17147487 0.0009327843 -0.07706567 -0.006801263 0.2600816 -0.53332824 0.14688788 -0.049362004
-0.10344066 0.033512823 -0.12120546 0.12354764 -0.024283694 0.100048885 0.09467158 -0.0589412
0.08500765 0.19948386 -0.043205023 0.05478369 0.098293275 -0.069121525 -0.18830706 -0.086285606
-0.08007117 -0.1447076 0.051182963 0.016037695 0.18452868 -0.04204966 0.07721757 -0.1772799
0.04797633 -0.017771248 0.0621777 0.28309777 0.2204521 0.15114048 -0.122771025 0.062345333
0.006987666 0.22022016 -0.08181654 0.04015135 -0.13303325 0.028407816 -0.096681006 0.2263099
0.16210979 0.0053094807 -0.013138805 -0.0327759 0.10222887 0.042552643 0.011867711 -0.17050026
0.15927225 0.1269603 0.07445831 0.15346499 -0.071808696 -0.055382602 0.026568849 -0.074075915
-0.019764056 -0.021465713 -0.028267927 0.080610365 -0.0354596 0.08481638 0.07195298 0.04651784
0.07139217 -0.014790589 -0.028431447 0.0037286498 -0.10295889 0.035713423 0.005779244 0.12008811
0.010440625 -0.2311471 -0.083654925 -0.008821603 -0.056613114 -0.07851568 0.108069055 -0.004225241
0.00042022986 0.051622543 0.027051993 0.102853425 0.06049608 -0.041936003 -0.021354226 -0.01035244
-0.14008394 -0.030014556 0.0039926255 0.0021206741 -0.012842081 -0.052579686 0.0025150622 0.052700564
0.04847996 -0.024790907 0.07766795 -0.030797383 0.17189468 0.0093000205 0.004910034 0.07155693
-0.014141204 -0.022431945 0.1436151 0.2455987 0.05675444 -0.12002971 0.12633567 0.22217044
-0.05878308 0.12501742 0.22754657 0.39117625 0.14346983 0.26782835 0.17422453 0.03122244
-0.05651758 -0.30535093 0.13084146 0.038483642 -0.22039458 0.29515475 -0.18965292 0.15933743
-0.09777869 -0.14301753 -0.040257037 0.054844942 -0.13936439 -0.12497069 -0.11864916 -0.18479075
0.11771141 -0.18041956 0.13520509 -0.021019524 -0.15952788 0.012080889 0.09010253 0.25441706
-0.0026834868 -0.039110973 -0.1412911 -0.07396526 -0.06337157 0.16947317 0.031314526 -0.036278848
0.031229714 -0.049000084 -0.03324134 -0.12078232 -0.03263081 0.11142198 0.10420943 -0.030225659
-0.10034902 -0.20303576 -0.029925475 -0.00093183306 0.1819729 -0.058531318 0.006097065 -0.10642353
0.07747442 -0.09103876 -0.004150487 -0.0455329 -0.036592156 -0.016266517 -0.0119542945 0.022515131
-0.03974788 -0.017591998 0.05479924 -0.012287969 0.06726936 0.0026975016 0.010377994 -0.044341616
-0.048847888 -0.02285379 -0.039119776 -0.010814469 0.053479794 -0.011421439 -0.042394623 -0.02019645
-0.078677244 0.010669762 -0.027554631 -0.047130756 0.04286566 0.037027016 -0.05629495 0.056139134
-0.0064834296 -0.08737478 0.05684453 -0.030755237 -0.03298457 0.033692863 -0.028417056 0.09964172
-0.0036219656 -0.009195217 0.023456229 0.041114442 0.0068019805 -0.06307338 0.021959458 0.032344382
0.03238739 0.012028354 -0.023729216 -0.0060974783 -0.06302152 -0.027133435 0.058935985 -0.062231004
0.10153551 0.045292158 0.08488961 -0.0734506 0.09623575 0.06678009 0.09124559 -0.065763764
00000000: 02ff 093e cf24 c6bc 0f67 efbc fef3 40bd
00000010: 6840 e2bd bb4d 9f3e 5deb 45bd 24d0 24be
00000020: a927 20bd 5392 d8be 6f15 02bd c1e0 e03a
00000030: 6901 0fbe 1e3c a2be 4cad 05bb 0fa7 b93d
00000040: 1c97 2f3e 1886 743a 9bd4 9dbd 21dd debb
00000050: 6a29 853e 3388 08bf c769 163e d02f 4abd
00000060: b2d8 d3bd be44 093d 913a f8bd 8c06 fd3d
00000070: 99ee c6bc 6ee6 cc3d 2ce3 c13d 546c 71bd
00000080: 7e18 ae3d 7f45 4c3e c0f7 30bd dd64 603d
00000090: fc4d c93d 968f 8dbd 91d3 40be 82b6 b0bd
000000a0: 5bfc a3bd 3b2e 14be 3aa5 513d 7c61 833c
000000b0: 16f5 3c3e 443c 2cbd 3f24 9e3d dd88 35be
000000c0: d482 443d 0295 91bc 0bae 7e3d 31f2 903e
000000d0: 32be 613e 92c4 1a3e 606f fbbd d25d 7f3d
000000e0: caf8 e43b 6581 613e 6e8f a7bd be75 243d
000000f0: de39 08be 82b7 e83c b100 c6bd c8bd 673e
00000100: 1c00 263e 27fb ad3b 2444 57bc 0640 06bd
00000110: 5f5d d13d ae4b 2e3d ca70 423c 9f97 2ebe
00000120: 4418 233e e201 023e 997d 983d ed25 1d3e
00000130: 7010 93bd ded8 62bd eaa6 d93c 1db5 97bd
00000140: 3be8 a1bc ddd8 afbc 2492 e7bc 0c17 a53d
00000150: 163e 11bd 36b4 ad3d 155c 933d 7e89 3e3d
00000160: 0f36 923d 3a54 72bc 11e9 e8bc 5d5c 743b
00000170: 1cdc d2bd 3d48 123d d05f bd3b c1f0 f53d
00000180: 280f 2b3c d3b1 6cbe 4653 abbd 7c88 10bc
00000190: 27e3 67bd d4cc a0bd 4f53 dd3d e473 8abb
000001a0: 4c52 dc39 2972 533d 249c dd3c d1a4 d23d
000001b0: bdca 773d 16c5 2bbd 0fef aebc 489d 29bc
000001c0: 2a72 0fbe 16e1 f5bc 92d4 823b 02fb 0a3b
000001d0: 9767 52bc cc5d 57bd bed3 243b 8cdc 573d
000001e0: ec92 463d 4d16 cbbc 6010 9f3d cb4a fcbc
000001f0: 2905 303e 1d5f 183c 5ae4 a03b 718c 923d
00000200: 82b0 67bc 33c3 b7bc d60f 133e 3a7e 7b3e
00000210: 5877 683d 23d2 f5bd 235e 013e a680 633e
00000220: 87c6 70bd 9104 003e f801 693e 4148 c83e
00000230: c1e9 123e cc20 893e ea67 323e 34c6 ff3c
00000240: fa7e 67bd f556 9cbe 4efb 053e 06a1 1d3d
00000250: 1eaf 61be 861e 973e 6034 42be 5a29 233e
00000260: 3240 c8bd 3073 12be 90e4 24bd 17a5 603d
00000270: 8ab5 0ebe a2f0 ffbd 55fe f2bd c939 3dbe
00000280: ae12 f13d e8bf 38be 3473 0a3e 2331 acbc
00000290: 475b 23be ecee 453c ad87 b83d f442 823e
000002a0: 70dd 2fbb d432 20bd 9dae 10be 197b 97bd
000002b0: f4c8 81bd 608a 2d3e a943 003d 2199 14bd
000002c0: 75d5 ff3c 50b4 48bd 1228 08bd b95c f7bd
000002d0: e2a7 05bd 3531 e43d c16b d53d cd9b f7bc
000002e0: c983 cdbd 9be8 4fbe 4526 f5bc 4246 74ba
000002f0: 1b57 3a3e 89be 6fbd e3c9 c73b 94f4 d9bd
00000300: e9aa 9e3d 8872 babd cf00 88bb b580 3abd
00000310: a8e1 15bd 5c41 85bc f2db 43bc a771 b83c
00000320: acce 22bd 181d 90bc 2b75 603d 7a53 49bc
00000330: 85c4 893d 91c8 303b 7608 2a3c 8e9f 35bd
00000340: b914 48bd df37 bbbc 0f3c 20bd 2c2f 31bc
00000350: a10d 5b3d fd20 3bbc fca5 2dbd 0773 a5bc
00000360: 8921 a1bd 3ad0 2e3c 40ba e1bc 2e0c 41bd
00000370: e793 2f3d a4a9 173d 8995 66bd 26f2 653d
00000380: f372 d4bb 8cf1 b2bd cfd5 683d 68f2 fbbc
00000390: d41a 07bd 8701 0a3d e3ca e8bc f510 cc3d
000003a0: 805e 6dbb 89a7 16bc 4727 c03c 9e67 283d
000003b0: 26e3 de3b 9e2c 81bd 52e4 b33c 8b7b 043d
000003c0: a4a8 043d 9312 453c c663 c2bc 5bcd c7bb
000003d0: 6d11 81bd f046 debc dc66 713d f0e5 7ebd
000003e0: d9f1 cf3d 4584 393d 9bda ad3d 456d 96bd
000003f0: 4017 c53d 00c4 883d f8de ba3d 27af 86bd

head.0.bias f4 [128]
0.0598529 -0.009889382 0.013853721 0.08323066 -0.06498887 -0.010741432 -0.008376106 -0.09166995
-0.02177356 0.06616891 -0.025713466 -0.06185333 -0.07097454 0.10978847 0.012076976 0.054896805
0.07292261 -0.051305506 -0.045416255 0.00932685 0.05723418 -0.00796703 0.00047309877 -0.067537464
-0.08158241 0.13471459 0.014556247 -0.05699424 -0.0009273208 0.13895041 -0.0023683961 -0.035419453
-0.013075825 -0.023532143 0.055302534 -0.10940841 0.075251766 -0.08914304 0.08286451 -0.03310641
-0.05525896 -0.016989857 -0.0055039204 0.050906893 0.05941836 0.008345786 -0.02611379 -0.048293862
-0.023072515 -0.08560273 0.03890392 0.0018495664 -0.0154803945 -0.10661261 -0.084172755 -0.054253228
-0.035941463 -0.042042673 -0.026883617 0.09446441 -0.08964227 0.07623259 -0.087573536 0.034087997
0.042827107 0.036284246 -0.03806707 0.0028776329 0.0045455787 -0.066249594 0.0018686401 -0.07422158
0.011240875 -0.024028286 0.050603278 0.025697902 0.12075072 -0.057941187 -0.00071755954 0.1473801
-0.016945325 -0.08838325 0.061235845 0.017085452 -0.0021575964 0.09535074 0.06004911 0.039318517
0.03505579 -0.038689077 -0.065990925 -0.020467972 -0.001651771 0.03929924 -0.028588716 -0.08117812
0.0043713506 0.04451936 -0.021865 -0.053908963 0.07095514 -0.014316576 -0.08498222 0.02332635
-0.07618924 0.096496955 0.06314453 -0.052878447 0.010425525 -0.044662565 -0.028802425 -0.052691188
-0.04671071 0.016297596 -0.074461654 -0.07141866 -0.05088086 0.035510488 0.057934 0.11158274
0.06760983 0.056679584 0.08538494 0.101003855 -0.05831311 0.0018140695 0.025646856 -0.051875576
00000000: 5128 753d 1307 22bc b8fa 623c d674 aa3d
00000010: e218 85bd d5fc 2fbc ef3b 09bc 74bd bbbd
00000020: 775e b2bc 9183 873d 0ca5 d2bc eb59 7dbd
00000030: 1a5b 91bd c7d8 e03d 82de 453c 79db 603d
00000040: 7358 953d b925 52bd 6506 3abd a5cf 183c
00000050: 636e 6a3d 2588 02bc 3e0a f839 1551 8abd
00000060: ae14 a7bd 9ff2 093e 537d 6e3c cb72 69bd
00000070: 7217 73ba 0449 0e3e 1837 1bbb fd13 11bd
00000080: fc3b 56bc 7bc6 c0bc e984 623d 8411 e0bd
00000090: 991d 9a3d a090 b6bd deb4 a93d 969a 07bd
000000a0: 3857 62bd 502e 8bbc 3b5a b4bb bf83 503d
000000b0: ab60 733d c3bc 083c 96ec d5bc c9cf 45bd
000000c0: 9202 bdbc 7c50 afbd b859 1f3d 266d f23a
000000d0: 7ba1 7dbc b657 dabd c462 acbd a238 5ebd
000000e0: 5b37 13bd f034 2cbd 083b dcbc 8e76 c13d
000000f0: 5e96 b7bd d51f 9c3d c159 b3bd db9f 0b3d
00000100: 7a6b 2f3d ca9e 143d 37ec 1bbd ab96 3c3b
00000110: 14f3 943b dead 87bd 28ed f43a 7c01 98bd
00000120: a62b 383c f8d6 c4bc 6245 4f3d 6884 d23c
00000130: 274c f73d bd53 6dbd 9b1a 3cba cfea 163e
00000140: ecd0 8abc 4702 b5bd 70d2 7a3d caf6 8b3c
00000150: 7666 0dbb 4047 c33d 0ef6 753d 740c 213d
00000160: a996 0f3d 7078 1ebd 4026 87bd 73ac a7bc
00000170: 3d80 d8ba 3df8 203d e232 eabc b740 a6bd
00000180: 8c3d 8f3b ef59 363d 3a1e b3bc a5cf 5cbd
00000190: ee50 913d 1290 6abc 280b aebd e716 bf3c
000001a0: 1b09 9cbd 32a0 c53d eb51 813d 1297 58bd
000001b0: d2cf 2a3c 18f0 36bd 10f3 ebbc b7d2 57bd
000001c0: bb53 3fbd 8982 853c 5a7f 98bd f243 92bd
000001d0: 7368 50bd 7273 113d 344c 6d3d 7e85 e43d
000001e0: 0677 8a3d da28 683d 4dde ae3d 1cdb ce3d
000001f0: bad9 6ebd 12c6 ed3a 5b19 d23c 7c7b 54bd

head.2.weight f4 [24, 128]
0.04427791 0.04047507 0.13457856 0.2248497 0.03848027 0.13213326 0.1481142 0.054652534
-0.05086848 -0.02710421 0.04137368 0.06975135 -0.06560278 -0.06597463 0.08737995 -0.04838867
-0.099010214 -0.104727566 0.086646125 -0.023875818 0.064853 -0.28733465 -0.030846966 -0.06412796
0.023459546 -0.019895792 -0.019385835 -0.050367832 -0.0019798852 0.023145212 -0.03308889 -0.05336804
0.16510668 0.09363295 -0.02280978 -0.035700914 -0.025331145 -0.08937786 0.059147764 -0.21999826
-0.07619085 -0.026494361 0.0742991 0.10305626 0.080033354 -0.077396765 -0.012224845 -0.07075586
0.0024059988 0.04017301 -0.16468424 -0.016895242 -0.014450295 0.100748725 0.05785744 0.018483255
0.070612416 0.07594177 -0.016955407 0.030370614 -0.06776745 -0.2081162 0.103034616 0.005694065
0.14362304 -0.03530267 0.071655214 0.027176587 -0.079446465 0.5221732 0.00016357715 -0.0265807
-0.013894828 0.051182136 -0.12534083 -0.040923934 -0.4152241 0.12645273 -0.2081177 0.09822854
-0.0028287992 -0.045810148 0.012701581 0.002828799 -0.20752153 0.31689054 -0.010498767 0.17231621
0.036613896 0.09194663 -0.041615795 -0.16219094 0.052481756 -0.31337485 0.099764064 0.06546334
0.092930056 -0.041926034 0.099054836 0.03972504 -0.515757 -0.049360845 0.00053379225 -0.056580584
-0.031016737 -0.03567546 0.02088485 0.14241883 0.07652391 0.12789592 0.20644328 0.046588216
0.052571096 -0.078223325 -0.0052342545 -0.10800764 -0.07969407 -0.7958637 0.11808892 -0.3051092
-0.06836197 -0.03399109 0.06027135 -0.082568355 -0.124211475 0.09739722 -0.0029435176 -0.056997225
0.08934676 0.055766102 0.11244761 0.15594107 -0.023860501 0.11382528 0.2023914 0.0006837736
0.056652356 0.0068029733 -0.031543255 0.026929537 -0.08193035 -0.01383064 0.06476012 0.018604765
-0.056051657 -0.020341879 0.09272581 0.09821534 0.149799 -0.03852891 -0.046193324 0.046759352
-0.0026544016 0.02080771 0.048172552 -0.06043086 0.09881452 -0.37520045 0.02176587 0.010359323
0.07539921 -0.04293804 -0.049784355 -0.019547708 -0.002946675 -0.096264035 -0.110869296 0.05693743
-0.05347177 -0.04391374 -0.07857797 0.06337983 -0.065407954 -0.06833816 0.071078636 -0.21111646
-0.02105895 0.040660925 -0.41769662 -0.021082884 0.017350717 0.040540222 0.05398881 -0.031439647
0.06918387 -0.009717406 0.10728666 -0.07291558 -0.033206925 -0.21256797 0.06285799 0.13787441
0.07703447 0.045323588 0.045570515 0.08393136 -0.029978782 0.3248576 -0.054230478 -0.078303516
0.07237777 -0.024553007 -0.084609255 0.017166788 -0.43097842 -0.087692924 -0.070809186 -0.10632925
-0.019524455 -0.0046673967 0.13943134 0.010902195 0.13015418 0.18848443 0.007273098 0.11080636
0.036090825 -0.079422124 0.03172181 -0.11307563 0.001092913 0.007739611 0.08780001 -0.01751684
0.0967657 -0.11741106 0.008081579 0.18657102 -0.010362797 -0.024777638 -0.05877756 -0.025452396
0.062033772 -0.00886672 -0.023926167 0.053706612 0.05033303 0.04427577 0.15066655 -0.012072483
0.06512412 -0.031708 0.011872331 0.03935371 -0.14674316 -0.5459468 0.15902685 -0.17239003
-0.052397996 -0.0718504 0.18764189 -0.3689802 -0.081540585 0.039506473 -0.017390795 0.0057692057
00000000: c15c 353d 30c9 253d f6ce 093e 003f 663e
00000010: 7d9d 1d3d f14d 073e 40ab 173e 56db 5f3d
00000020: 785b 50bd a609 debc 7377 293d ccd9 8e3d
00000030: c05a 86bd b51d 87bd 42f4 b23d 3333 46bd
00000040: dec5 cabd 687b d6bd 8673 b13d 3897 c3bc
00000050: a6d1 843d 871d 93be c7b2 fcbc 8555 83bd
00000060: 3c2e c03c 80fc a2bc 0bcf 9ebc 804e 4ebd
00000070: f6c0 01bb 079b bd3c 3788 07bd 7298 5abd
00000080: ba11 293e a2c2 bf3d 93db babc 1f3b 12bd
00000090: 4383 cfbc bd0b b7bd ed44 723d 3947 61be
000000a0: f309 9cbd b40a d9bc 202a 983d 290f d33d
000000b0: 87e8 a33d 3282 9ebd b74a 48bc 73e8 90bd
000000c0: f6ad 1d3b 748c 243d fca2 28be e467 8abc
000000d0: eec0 6cbc 5955 ce3d ecfb 6c3d 326a 973c
000000e0: 3e9d 903d 5c87 9b3d 11e6 8abc cbcb f83c
000000f0: a9c9 8abd 6a1c 55be d003 d33d 4795 ba3b
00000100: eb11 133e 8899 10bd f8bf 923d 6fa1 de3c
00000110: d4b4 a2bd 25ad 053f e885 2b39 c5bf d9bc
00000120: 22a7 63bc 5ca4 513d 5959 00be db9f 27bd
00000130: 4198 d4be d37c 013e ce1c 55be 0b2c c93d
00000140: 6063 39bb 6ca3 3bbd 4b1a 503c 5f63 393b
00000150: 8680 54be 7a3f a23e 0503 2cbc a973 303e
00000160: 74f8 153d 844e bc3d 5375 2abd 6215 26be
00000170: 1cf7 563d ab72 a0be 1a51 cc3d a511 863d
00000180: 1d52 be3d a2ba 2bbd 43dd ca3d b9b6 223d
00000190: a708 04bf 992e 4abd 31ee 0b3a 0bc1 67bd
000001a0: d016 febc 6e20 12bd b416 ab3c 3ed6 113e
000001b0: 91b8 9c3d 26f7 023e de65 533e 49d3 3e3d
000001c0: ca54 573d 8d33 a0bd 1c84 abbb 1c33 ddbd
000001d0: a536 a3bd b9bd 4bbf 9bd8 f13d 4637 9cbe
000001e0: 5c01 8cbd 3e3a 0bbd 17df 763d 9919 a9bd
000001f0: 9662 febd 3278 c73d 08e8 40bb ec75 69bd
00000200: 6ffb b63d ff6a 643d ef4a e63d 04af 1f3e
00000210: 1977 c3bc 3a1d e93d b13f 4f3e 453f 333a
00000220: 4d0c 683d 7aeb de3b 8033 01bd 559b dc3c
00000230: 19cb a7bd e999 62bc f4a0 843d 0569 983c
00000240: 6c96 65bd 03a4 a6bc 08e7 bd3d 2025 c93d
00000250: e964 193e 7ed0 1dbd 3635 3dbd bc86 3f3d
00000260: 78f5 2dbb ee74 aa3c 9550 453d 5986 77bd
00000270: 445f ca3d 461a c0be 564e b23c 26ba 293c
00000280: e76a 9a3d ccdf 2fbd aeea 4bbd 8422 a0bc
00000290: 011d 41bb 1426 c5bd 710f e3bd 3937 693d
000002a0: 3705 5bbd e5de 33bd 7ded a0bd 49cd 813d
000002b0: 9bf4 85bd e1f4 8bbd ad91 913d ea2e 58be
000002c0: d283 acbc 128c 263d 55dc d5be 03b6 acbc
000002d0: 1723 8e3c 810d 263d 5f23 5d3d dcc6 00bd
000002e0: 46b0 8d3d c135 1fbc 1cb9 db3d c354 95bd
000002f0: fc03 08bd 6bab 59be b1bb 803d f32e 0d3e
00000300: 40c4 9d3d 3aa5 393d 26a8 3a3d 34e4 ab3d
00000310: 1096 f5bc bc53 a63e c720 5ebd 985d a0bd
00000320: cc3a 943d 6323 c9bc 9e47 adbd 5da1 8c3c
00000330: 34a9 dcbe 5998 b3bd 6804 91bd 26c3 d9bd
00000340: c0f1 9fbc f6f0 98bb 17c7 0e3e 1f9f 323c
00000350: 2347 053e 1002 413e 2b53 ee3b 72ee e23d
00000360: f9d3 133d 11a8 a2bd bbee 013d 3294 e7bd
00000370: 1340 8f3a 909c fd3b 7ed0 b33d 7a7f 8fbc
00000380: 182d c63d 3675 f0bd 9968 043c 790c 3f3e
00000390: b9c8 29bc 79fa cabc bdc0 70bd 8b81 d0bc
000003a0: 2017 7e3d b845 11bc cf00 c4bc 77fb 5b3d
000003b0: 022a 4e3d 835a 353d 5548 1a3e aacb 45bc
000003c0: cb5f 853d 3fe0 01bd 2a84 423c 5b31 213d
000003d0: d743 16be 2bc3 0bbf efd7 223e 0387 30be
000003e0: 489f 56bd 4d26 93bd 3225 403e f9ea bcbe
000003f0: c0fe a6bd 8ad1 213d 2477 8ebc 9b0b bd3b

head.2.bias f4 [24]
0.047883138 0.077930726 -0.0413512 -0.05887161 0.045325376 -0.08327036 0.09550379 -0.008300295
0.0744973 -0.0036470434 0.014729804 -0.08916993 -0.016586944 0.06078155 -0.02617086 0.08800787
-0.0057405033 -0.042786 -0.04006449 -0.052373502 0.049578767 -0.025016472 0.05616139 -0.013698384
00000000: 1c21 443d 259a 9f3d e05f 29bd 5b23 71bd
00000010: 1aa7 393d a789 aabd 7e97 c33d f6fd 07bc
00000020: 0a92 983d 3c03 6fbb 4755 713c b99e b6bd
00000030: 58e1 87bc 13f6 783d 4564 d6bc 783d b43d
00000040: d51a bcbb 5f40 2fbd aa1a 24bd 9985 56bd
00000050: 1b13 4b3d 58ef ccbc 7c09 663d 306f 60bc
