runs_lstm24_roll/cnn1d/exp_20260213_185249/ckpts_flat/best_w0007_TR20250826-20250922_VA20250923-20250929.pt (torch, 197189 bytes, 12 tensors)

conv.0.weight f4 [32, 1, 5]
00000000: e9ee b93e 881a c93e ca17 acbd bc59 dd3e
00000010: a43c aabd e2a9 bb3d 197b 5abe 7f39 863e
00000020: 9dd0 c73e 3528 aabe db97 d13e 2636 d83d
00000030: 25c7 b43e 8be4 a63d 6746 723e 73c4 34bd
00000040: adb2 b93e bcdb ac3d 07ee 48be dc1f 073e
00000050: 76df f1bd a5a6 6bbe 459a 22be 2dd7 ce3e
00000060: b503 84be 01c0 70be 724d 23bd 2f8e 5cbe
00000070: 9cb5 3b3e 55b5 e6be 8ee5 d53e 1dd2 bdbe
00000080: 9e4d b53e 6880 9f3d 14a1 14be f5c5 953e
00000090: e914 b13d e509 c23e d546 7c3d f5b6 06be
000000a0: 1253 0a3e 8755 d9bd e000 503e d9e8 d43e
000000b0: 251e 8d3e dcba 50be 28d2 7e3e 0ed5 883d
000000c0: 4f01 603e 4852 8ebe aadb 18bf 9d9e b0bd
000000d0: a10f 8dbe d832 d23e e897 253e ec82 413e
000000e0: 2bb6 133e ce29 26bc e368 b53e 4691 a4be
000000f0: 6f9c 813c 51a1 c5be 9a16 1d3e 4183 54be
00000100: ec97 0d3e 028b b9bd cb34 c33e e69f 91be
00000110: 2914 73be 20f4 68be b307 c43e 5315 043e
00000120: 30ee d33e 3d97 c2be 24c1 e6be 5591 bfbe
00000130: 8492 9cbe 3d95 373e 5596 213e 3b64 c13e
00000140: 135c b1be 431a b3be 81c4 6d3e ceac 54be
00000150: 8f5b 843e 964b f1bd 1a1a 683e 84f2 dabe
00000160: dca4 89be 8bf7 3b3e d380 9b3d 9705 08be
00000170: 26a0 813e ac39 963e cbfa aabe 7d0c 78be
00000180: 7266 d63e 963d 12be 4ae7 22be fc70 ddbe
00000190: 694e cbbe 51fd 563e 0aa0 53bc e5ed 46be
000001a0: 395e fd3d 7e67 9cbe fb40 c2be f12a 7cbe
000001b0: d364 c8be f8ca 91be 0d42 e93e 939c be3d
000001c0: d4b8 1c3e 8dc7 cabe 45cb 89be ee47 6dbe
000001d0: 33de 303e 4f22 bebe 7c4f 45be 7113 89be
000001e0: 6fe0 27bb 8a36 31be 9376 6cbd ec27 9bbe
000001f0: bb29 9dbe 02b6 c6be 60bf 9fbe 35f1 b2be
00000200: 089c dc3e 9ffc c0bd fdfd cc3e b36e 1f3e
00000210: 1bd9 bbbe 2cd1 a93e 2a23 dbbd c9a0 42be
00000220: ddb0 dcbe 3a7b 25bf ceae 803e 28b1 11bd
00000230: 5e5f 0e3e 5d53 cfbe 1723 b23e d196 9ebe
00000240: ab8d d0bc 4434 eb3d d8d2 813e f60d c53e
00000250: 841c de3e b8c4 a9be a099 913d a22c 6cbe
00000260: 4794 88bd 09af bcbe e102 ce3e 44fd b0be
00000270: 02fc 703e 9e13 223e dec6 1e3e 275a 6abe
0.36315086 0.39278054 -0.08402975 0.43232524 -0.083123475 0.09163262 -0.2133602 0.2621574
0.39026347 -0.332338 0.4093617 0.10557203 0.35308185 0.0814906 0.23659669 -0.04413266
0.3626913 0.084403485 -0.1962205 0.13195747 -0.118102 -0.23012789 -0.15879162 0.4039854
-0.25784078 -0.23510744 -0.03986878 -0.21538614 0.18330997 -0.4506022 0.417767 -0.37074366
0.3541078 0.077881634 -0.14514571 0.29252592 0.086465664 0.37898174 0.06159099 -0.1315573
0.13508251 -0.10612016 0.20312834 0.415839 0.2756206 -0.20383781 0.24884856 0.06681262
0.21875499 -0.2779715 -0.5971018 -0.08624003 -0.27550986 0.41054416 0.16171229 0.18897599
0.1442496 -0.010141803 0.35431585 -0.32142085 0.015821664 -0.38599637 0.15340653 -0.20753194
0.13827485 -0.09059717 0.38126215 -0.28442305 -0.23738159 -0.22749376 0.38287124 0.1289876
0.4139266 -0.3800601 -0.4506923 -0.37415567 -0.30580533 0.17928024 0.15780003 0.37771782
-0.3464056 -0.34980974 0.23219492 -0.20769045 0.25851104 -0.11781995 0.22666207 -0.4276315
-0.2688359 0.18356149 0.07592931 -0.13283382 0.25317496 0.29340875 -0.33394465 -0.24223514
0.41875035 -0.14281306 -0.15908542 -0.43250263 -0.3970826 0.2099507 -0.012916574 -0.19426687
0.12371487 -0.30547708 -0.379402 -0.24625756 -0.39139423 -0.28475165 0.45558205 0.09307208
0.15304881 -0.3960537 -0.26912895 -0.2317197 0.17272262 -0.3713555 -0.19268602 -0.26772645
-0.002561595 -0.17305961 -0.05773027 -0.30303895 -0.306959 -0.38810736 -0.31200695 -0.3494965
0.43087792 -0.09423184 0.40037528 0.15569572 -0.36689076 0.33167398 -0.107000664 -0.19006647
-0.43103686 -0.64641154 0.25133365 -0.03556934 0.13903567 -0.4049329 0.34792396 -0.3097444
-0.025458178 0.11484578 0.25356174 0.38487214 0.4338113 -0.33157897 0.0710938 -0.23063901
-0.06668907 -0.3685229 0.4023657 -0.34568226 0.23533633 0.15827796 0.1550555 -0.22885953

conv.0.bias f4 [32]
00000000: 5d34 be3e 4e96 1e3d 498b dd3c 3d9c cfbe
00000010: 280c d53d a3f2 b3bd 35a0 63be 4adb b33e
00000020: d876 743d 9f7d 8bbe fea1 85be 0eb3 2cbd
00000030: 2217 183e e667 efbd e95d 92be 432d 45be
00000040: 4734 cdbe de47 743d 1f3f 983e a925 d6be
00000050: 269f 22bc 4a59 9b3e f4ce 2b3d 6064 27be
00000060: e240 853e 89a0 133e 2479 f03d dc77 fdbd
00000070: ad89 1abe 8075 603c e1c2 09be 27f1 20be
0.37149325 0.03871756 0.027043955 -0.40548888 0.10402709 -0.08786514 -0.22229083 0.35128242
0.05968365 -0.2724428 -0.26100153 -0.042162947 0.14852574 -0.11689739 -0.28587273 -0.19255547
-0.40078947 0.05963885 0.29735658 -0.41825607 -0.009925639 0.3034156 0.041945413 -0.16346884
0.26026064 0.14416708 0.11741856 -0.12376377 -0.15091582 0.013699889 -0.13453247 -0.15716992

conv.2.weight f4 [32, 32, 5]
00000000: a8d4 723d 1c8b 9b3d e918 d9ba e498 42bc
00000010: e91b bf3b c11c aeba db81 c43c be01 b13c
00000020: baf9 93bd ec9e c4bc 070d 993d 41c9 1c3d
00000030: 20fd 2e3b 0756 2cbd 0e6a 2fbd 46db 7ebd
00000040: 350b 9fbc 449c 0b3d 828c 5f3d bfd3 1c3d
00000050: 2536 d4bd 3067 70bd ee21 ecbc 4d05 b63d
00000060: 0b59 9c3c 05a5 1dbd 2622 b63c 5d97 4fbd
00000070: 5e3a acbd fa57 6c3d 322e e5bc 41a2 f1bb
00000080: d39f 96bd f002 663d 1a83 863d 18b8 183d
00000090: eca5 3fbd b9d9 92bd 7b64 75bd 660f 823d
000000a0: 09ad 363d 3675 933d e495 3c3d b348 d23c
000000b0: bb90 d13b 4413 6cbd 5f57 89bd a490 9ebd
000000c0: 906d dd3c d45c 2bbd 6f33 e2bc 9348 81bd
000000d0: e03a 27bd 6745 96bd ccdc b0bd a003 0e3d
000000e0: 9f5a 71bc 1c69 5b3d 8c8e acbc b7fb 5ebd
000000f0: b3de b1bc e24b 44bd 2d4c 13bd ee64 abbd
00000100: d9ac 2e3d 7d05 9cbd 40ef 503c 64d7 323c
00000110: 77fa 0f3d 6a08 a8bd fd98 803d e71d f5bc
00000120: ac83 133d 5349 9d3d 2f36 20bc 30c8 59bc
00000130: 4c8b 17bd ffa9 a1bd ab1d 0c3d cee7 92bd
00000140: 9527 243d e96e 363d 00aa 823d ddee f0bc
00000150: cbe8 a0bd 5d58 163c 84c8 013d 873f b0bd
00000160: 3d2d b7bc 7101 52bd 7370 b7b9 aa22 fdbc
00000170: 4fa5 f0bc 0a0b bebc 21e3 8dbd 3544 e93c
00000180: 6478 a63c 6d12 61bd 5de8 42bd f39e 98bd
00000190: 562e b83c 5ba4 fdbd 56f9 21bd 6f30 a4bd
000001a0: 0925 f9bd 9c3b 9dbc cd9f 1bbd 09b9 17bd
000001b0: 7a6d 11bc 6004 e3bc 694e c0bc fced 07bd
000001c0: 25bc 71bd 4af1 8c3d 2827 02bd 53bd 893d
000001d0: 8014 57bc 5134 883c 4b8d b43d a440 223e
000001e0: 235e 9bbd 5c56 aa3c e928 833d 4a58 313c
000001f0: 3d18 323d 1387 7f3d ef58 c3bc 2260 c93b
00000200: 8570 83bd 3cd5 e6bc 2f16 8b3d 9f46 493d
00000210: 2b40 34bd a4ee 66bd f0db 4dbd 4869 d9bd
00000220: c52b 93bd ac97 0abd d3f4 033d 71cc 583c
00000230: 2021 98bd 148c a7bd 4527 ac3c 99c7 99bd
00000240: 7fee bbbc d3b3 3e3d b44e e9bc 913e 5cbb
00000250: 983f 35bb 7cc7 61bc 0ecb 46bd b04c 99bd
00000260: 114a 69bd 435b 04bd 8ab0 ae3d f4e9 20bd
00000270: e643 75bd 061b 073c 0fb4 013c 0336 0a3d
00000280: 5cb2 4b3d cfbe 093d 2a38 b5bd 5c10 4dbb
00000290: 18be 193d d673 88bc a30c 6abd 31eb 843d
000002a0: bfea 1bbd b3da 5ebd 06f4 a6bd 4853 dfbb
000002b0: b6d7 cb3c 98d1 ef3b 1291 b13b 2ace 90bd
000002c0: d448 abbd 258d 0fbc 0356 7b3d 5912 123d
000002d0: d0e0 5abd 1dcf 8cbc 86a9 88bd ba43 4cbd
000002e0: 80bc 973b 73d5 173d cc60 723d 735f a1bd
000002f0: b280 583d 1c61 64bd 1c6d a23c 940e 663d
00000300: 59c6 17bc bb20 7f3d 1aae 9ebd 6b4a 25bd
00000310: dd65 123d b794 e1bc f7c4 d7bc 2564 30bd
00000320: a36f 353d 3755 e83c e6f4 783c 1975 5ebd
00000330: 8a60 98bd d218 d7ba 7414 5c3c e4ae 40bd
00000340: 3969 02bd 54f8 333d 86ab 8cbb 08f4 fcbb
00000350: ddb7 f0bc f556 9dbd 9cc6 b3bd c57b 44bd
00000360: fd5d 4fbd 03cf 6b3c cfb3 06bd e4ef 28bd
00000370: 275a 863d bdc3 8e3c 4189 3d3d 8cd1 43bd
00000380: 207d 2cbd 8326 873c 47c3 73bd ecea 73bd
00000390: 7301 72bc 3877 1ebd 9fc4 8dbd 1616 163d
000003a0: cff8 593d c313 263b 4e91 c3bc eb7b aabd
000003b0: 522c 1fbd e1dc 273c 0b29 de3c a7d8 a5bc
000003c0: 7bc1 27bd e0d0 0c3d 65b8 96bd 7b49 213d
000003d0: 2d57 cabc 1663 41bc e0bd c3bc 4803 243b
000003e0: 04f2 0dbd dd18 443d c3e5 3dbc 7e0a 523d
000003f0: 592b 863d 646f 43bd 13a7 89bd 6c01 4e3d
0.059284836 0.075948924 -0.001656321 -0.011877272 0.0058321846 -0.0013283716 0.023987701 0.021607276
-0.07225366 -0.024001561 0.07473188 0.03827787 0.0026701167 -0.04207423 -0.04282575 -0.062220834
-0.019414524 0.034084573 0.054577358 0.038287874 -0.1036189 -0.058692157 -0.028824773 0.0888773
0.019085428 -0.038487453 0.02223308 -0.05068146 -0.0840957 0.05770109 -0.02797613 -0.0073740785
-0.07354703 0.056155145 0.065679744 0.03728494 -0.046789095 -0.071704336 -0.05991028 0.06350593
0.044598613 0.072000906 0.046041384 0.025669431 0.006395427 -0.05763556 -0.06706118 -0.07742432
0.027029783 -0.041836575 -0.027612416 -0.063126706 -0.040827632 -0.07337456 -0.08635864 0.034671426
-0.014731078 0.053567037 -0.021064065 -0.054439273 -0.021712637 -0.04792393 -0.03596132 -0.0836886
0.04264531 -0.07618234 0.012752354 0.010915611 0.03515097 -0.0820473 0.0627918 -0.029921485
0.036014244 0.07680001 -0.009778543 -0.013292357 -0.03699808 -0.07893752 0.03420798 -0.071731195
0.04007681 0.044539366 0.06380081 -0.029410774 -0.07856902 0.009176341 0.031685367 -0.08605867
-0.022360438 -0.051270906 -0.0003498826 -0.030900318 -0.0293757 -0.023198623 -0.06928087 0.028474906
0.020321079 -0.054949213 -0.04758488 -0.07452192 0.022483032 -0.12384864 -0.039544426 -0.080170505
-0.12165267 -0.019193463 -0.037994195 -0.037041698 -0.008876199 -0.027712047 -0.023474889 -0.033185944
-0.05901732 0.0688196 -0.031775624 0.06725564 -0.013127446 0.016626509 0.08816012 0.15844971
-0.075863145 0.020793132 0.06404287 0.010824272 0.043480147 0.062384676 -0.023846118 0.006145493
-0.06417946 -0.02817785 0.067913406 0.049139615 -0.044006508 -0.05637993 -0.050258577 -0.10615784
-0.07186083 -0.03383605 0.032215904 0.013232336 -0.07428193 -0.08181015 0.021014819 -0.07508773
-0.022940872 0.046558212 -0.028479911 -0.0033606628 -0.0027656313 -0.013780471 -0.04853349 -0.0748533
-0.0569554 -0.032313596 0.08529766 -0.039285615 -0.059879206 0.008246189 0.0079164645 0.033742916
0.049730644 0.033629235 -0.08848603 -0.0031290269 0.037534803 -0.016656797 -0.057140958 0.06490172
-0.03806567 -0.054407787 -0.081520125 -0.006815348 0.024883132 0.0073186867 0.005418905 -0.07070573
-0.083635 -0.008761679 0.061361324 0.03566203 -0.053437054 -0.017188603 -0.06672959 -0.049869277
0.0046306252 0.037068795 0.059174344 -0.078795336 0.05285711 -0.055756673 0.019827418 0.056166247
-0.009263598 0.062287074 -0.07748051 -0.040354174 0.035741676 -0.027536733 -0.026339037 -0.043064255
0.04429592 0.028360946 0.015195107 -0.05431089 -0.07440288 -0.0016410595 0.013432611 -0.04704179
-0.03183863 0.043937996 -0.004292908 -0.0077195205 -0.029384548 -0.07682601 -0.08778116 -0.0479696
-0.050626744 0.014392617 -0.032886323 -0.041244403 0.06560164 0.01742732 0.046273474 -0.04780726
-0.042111516 0.016497856 -0.059512403 -0.05955021 -0.014770853 -0.038687915 -0.06922268 0.036642157
0.053215798 0.0025341369 -0.023872998 -0.08324417 -0.038860627 0.010245533 0.02711918 -0.02024491
-0.040956 0.034378886 -0.07359389 0.039376717 -0.024699772 -0.011803409 -0.02389425 0.002502637
-0.034654632 0.047875274 -0.011590424 0.051279537 0.06551237 -0.047713652 -0.0672132 0.050294325

conv.2.bias f4 [32]
00000000: da9f f9bb f5aa 9dbc 9e45 bbb8 b0c5 72bd
00000010: de30 3cbd e244 04be 9338 37bd 39f2 9a3c
00000020: dba4 3b3d 7f67 cebd 9f46 65bd 772b 4a3d
00000030: f973 85bd f8b3 373d a5f1 d7bb 11f0 b2bd
00000040: 7902 363a fb1e 6ebd c50c d23b 3a6c afbd
00000050: 0267 6b3d eb50 12bd 0c22 2d3d de62 74bd
00000060: 2703 acbd 4815 d9bb 37a5 eb3c 7af2 a1bc
00000070: 0124 9ebd 54ae 0cbd 30cd 97bd 4204 a4bb
-0.0076179327 -0.019246558 -8.929822e-05 -0.05927056 -0.04594504 -0.12916902 -0.044731688 0.018914329
0.045811515 -0.10078334 -0.055975553 0.049357858 -0.06516261 0.044849366 -0.0065900856 -0.08737195
0.00069431175 -0.058135014 0.0064102137 -0.085655645 0.057471283 -0.0357217 0.042268798 -0.0596646
-0.08399039 -0.0066248514 0.028765304 -0.019768942 -0.07721711 -0.03434594 -0.07412183 -0.0050053904

exog_mlp.0.weight f4 [128, 144]
00000000: 7963 b33d 5f12 bf3d b66e 8e3d 367d 56be
00000010: 95dc 873d dc5c 3ebd fa00 b33d 36ed 35bd
00000020: 1020 98bd f671 0bbe 4206 e93c be95 82bd
00000030: 6e86 a33d 50ba 49bc cac8 bdbd b219 62be
00000040: c150 73bd 45a0 c4bd a12f 093e 2994 babc
00000050: 040a cd3c ab9c d2bd 64f3 1cbe aadf 15be
00000060: 9257 313d df5e 4f3d 7d19 753d 45bb 20be
00000070: 5a53 09bd 1694 7ebc 57d8 ff3d c51c 34bd
00000080: 8998 85bd 684a 37be ddee c9bd 51f1 06bd
00000090: 00c1 ed3d 503b d53d 6162 f4bc e66b 57be
000000a0: d8ed c7bd df8d 243c bad8 9d3d cd88 623d
000000b0: 1171 d33c 2020 10be 4175 3dbd 1e33 aa3d
000000c0: 8d05 84bb 5d43 11bd 1050 773d 5ed7 2dbe
000000d0: 76b1 2abe 09fa 3c3d 4c66 3d3d 382a 95bc
000000e0: 873f 4138 3a76 05be 8030 2cbd f51a 863d
000000f0: d52f babd 4918 92bc e88b 74bc 03c3 13be
00000100: fae4 0ebe 8541 273e fde8 afbc 1196 3ebd
00000110: e8ad 7f3d 88d5 12be 273d 2a3d 83e1 c53d
00000120: ad59 5bbd 4809 8fbd 43d1 43bd 043b 14be
00000130: 70ce 8f3d 6e6d 583d a645 27bd 9cd0 48bd
00000140: fa7e 27bd 4016 34be 57c8 b6bc c72c 213d
00000150: 9895 a8bd dc4f 81bb 19d7 853d e780 d7bd
00000160: e860 713d 5124 b43d 97f5 82bd e901 7abd
00000170: 9818 a63d b868 82bd fb9c af3a c473 b73c
00000180: d728 cdbd 65ea abbb 6e88 b03c 7799 3abe
00000190: 5638 0b3e 5a26 b53d a769 ebbc 78e3 8fbd
000001a0: 06d0 ab3d a855 0cbd e927 d93d aa0b 7c38
000001b0: 0d1a bb3d 8bb2 803d a8c3 3b3b 3550 dfbc
000001c0: d548 2f3d 7543 14bc 2314 013e 8c67 06bd
000001d0: f4ca 90bc 7670 0cbe a5ed 973d 7f89 233d
000001e0: 86af f33d 6f77 54bd 97a5 53bd e181 cabd
000001f0: 58a1 a33d e5e9 d8bd 51b8 b9bb bd70 b93d
00000200: aa24 1a3d 0689 96bd 4e68 aa3d 9d89 22be
00000210: ed6d 9e3d 3339 823d ea5b 1dbd a0a0 03bd
00000220: 0dea d03d da9a c0bd e5b1 f43d a8ab 9c3d
00000230: 4c16 a2bd 35ea 93bd e882 12bd fb11 edbd
00000240: d338 1cbd 9c79 403d 1f43 c8bd 853b 6f3c
00000250: 32d5 b4bd c2f5 e13c 8bed 053c 4dad 4abd
00000260: 2da1 e83b 0f22 853d aab1 193d fbe3 a5bd
00000270: 20eb 0ebd 374c 713d 3296 98bb aea2 3cbb
00000280: 4904 fcbb cc2a f0bc f4b9 13bd dbc4 37bc
00000290: 8066 393d 1c3b 1cbd 668c 11bd 1271 a93c
000002a0: b6ca 3abd bfef 643d 9572 393d 5163 2abc
000002b0: e2db 89bd 0430 023d 99aa 603d 5ac4 2d3c
000002c0: 0d0d 903c a1de 5fbd dabf c1bd 059a a7bc
000002d0: e9c5 61bc c4a8 693d 7ca9 6039 a423 d3bc
000002e0: 4682 f1bc 78f0 69bb 31f9 7cbd 1bc2 54bd
000002f0: d1ee c8ba 519a 363d 1bca 863d 668d 393d
00000300: 4c5f 99bd d8eb 743d 128c 823d 515e 21bd
00000310: bb06 3b3b 6b69 b63d d0dd 3fbd 3b2d b63c
00000320: e04f 3bbb 5545 ab3c 1bab 0a3d 8d6e c53d
00000330: e522 593d 00fe 97bd 5b21 093d c7ee 0ebd
00000340: dced 0fbd 7d7b e03c 128f ecbc 81c6 92bd
00000350: 7407 b9bd 1f03 88bd cc60 9f3c 1ea3 813d
00000360: 1524 023d 4ed0 9f3b 79b0 7e3d f034 b9bd
00000370: cd32 24bd 6dea 353d acfd bdbd 32b9 7a3d
00000380: 76b3 b0bb 3073 50bd ec55 b33d 4679 333d
00000390: 1b5d 5d3d 5fbb 393d 8b32 00bd 8da4 563d
000003a0: 26dc c93c 3085 043c 0043 683c 3366 a9bd
000003b0: 4d72 88bd 996d 593d 1624 27bd 69af 243d
000003c0: 440f 193d 1b33 aebd 6311 d9bc 2258 bcbc
000003d0: 3a1c 9a3d b210 00bd c9fc 833d cb9d b2bd
000003e0: d758 913c d984 cd3c 2d67 8fbc 05cc 1cbd
000003f0: 18e2 7cbd 3273 a43b 23a3 2d3c 0f7d 4bbd
0.08759207 0.09329676 0.0695471 -0.20946202 0.066338696 -0.046475276 0.08740421 -0.044415675
-0.074279904 -0.13617691 0.028445367 -0.06376217 0.07984625 -0.012312487 -0.09266813 -0.22080114
-0.059403185 -0.096008815 0.13397075 -0.022775726 0.02502919 -0.10283788 -0.15327221 -0.14636102
0.043296404 0.050627586 0.05983876 -0.15696438 -0.033526756 -0.015538236 0.124924354 -0.04397275
-0.065232344 -0.17899477 -0.09860013 -0.03294498 0.116090775 0.104117036 -0.029832067 -0.21037254
-0.09762162 0.01004359 0.07707353 0.055306245 0.02581075 -0.14074755 -0.0462544 0.08310531
-0.004028982 -0.035464633 0.060379088 -0.16976687 -0.16669258 0.04613689 0.046240136 -0.018208608
4.607395e-05 -0.13033381 -0.04203844 0.065481104 -0.090911545 -0.017833846 -0.014925934 -0.1442986
-0.13954535 0.16333587 -0.021473402 -0.046529833 0.06242171 -0.14339268 0.041562226 0.096621536
-0.05355232 -0.06984192 -0.04780699 -0.14475638 0.07021797 0.052838735 -0.040837906 -0.04902707
-0.04089258 -0.17586613 -0.022312326 0.039349344 -0.08231658 -0.0039462876 0.06535167 -0.10522633
0.058930308 0.08795989 -0.06394499 -0.061036978 0.0811016 -0.0636763 0.0013398224 0.022394069
-0.10017555 -0.005246448 0.02154943 -0.18222605 0.13595709 0.088452056 -0.028736902 -0.07025808
0.08389287 -0.034261376 0.106033154 6.0092345e-05 0.09135828 0.06284054 0.0028650556 -0.027259925
0.042794067 -0.009049286 0.12605338 -0.032813594 -0.0176749 -0.13714775 0.07418374 0.03992605
0.11898713 -0.051871713 -0.05167159 -0.09888054 0.07989758 -0.10591487 -0.005667724 0.09054706
0.03763262 -0.07350354 0.08320676 -0.15872808 0.077358104 0.06358566 -0.038417734 -0.032135606
0.10200892 -0.094045356 0.11947993 0.07649928 -0.07914409 -0.07222406 -0.035769373 -0.11575695
-0.03814013 0.046990976 -0.09778427 0.014601593 -0.08829726 0.027583007 0.00817431 -0.04948168
0.007099292 0.06500637 0.03752295 -0.081001244 -0.0348922 0.058910575 -0.0046565766 -0.0028783488
-0.0076909405 -0.029317282 -0.03606601 -0.011216368 0.045263767 -0.03814231 -0.035534285 0.020683799
-0.045603476 0.055892702 0.04527529 -0.010399655 -0.067313924 0.031784073 0.054850195 0.010605896
0.017584348 -0.054655675 -0.09460421 -0.020459184 -0.013780096 0.057045713 0.00021425443 -0.02577383
-0.029481065 -0.003569631 -0.061761085 -0.051942926 -0.0015329962 0.04458076 0.06581517 0.045300864
-0.074888796 0.05979523 0.063743725 -0.039396588 0.0028537947 0.08906826 -0.046842396 0.022238364
-0.0028581545 0.020907084 0.033854585 0.096402265 0.053011794 -0.074214935 0.033479076 -0.034895685
-0.03513895 0.027402634 -0.028876815 -0.07166768 -0.09034625 -0.0664122 0.019455336 0.0632994
0.03177269 0.004877127 0.062180016 -0.090433 -0.04008751 0.04441302 -0.092769 0.061211772
-0.005392487 -0.0508911 0.08756623 0.043816827 0.05404387 0.045344707 -0.0312982 0.05240302
0.024641108 0.008088395 0.01417613 -0.08271446 -0.06662426 0.053083036 -0.0408059 0.040206347
0.037368074 -0.08505841 -0.026497548 -0.022991244 0.07524915 -0.031265922 0.06444699 -0.08721503
0.017742557 0.02508776 -0.017505253 -0.038280506 -0.061739057 0.005018615 0.010597977 -0.049679812

exog_mlp.0.bias f4 [128]
00000000: eea2 95bb 3206 863d 5ab3 803d 777e 3dbb
00000010: 8108 bc3d c117 683c 6e4d 60bd bdfb a63c
00000020: 678e a43c a969 e1bc a272 9a3d 3aa9 ab3c
00000030: 59cc 21bd d27c 953c 3cff ee3c 05ea 783d
00000040: aca7 68bd 2a62 9dbd d1b9 05bd b34e 59b8
00000050: 4605 94bd c01f 01bd 3dd8 92bd d221 b6bd
00000060: a879 2a3d 7f70 f33c 7467 96bb 12c6 6c3d
00000070: 0827 a83c df89 5cbc cfba 7b3d 57f7 ac3d
00000080: a1af 143d 3eb8 5abd 2570 453c b325 4b3d
00000090: 7319 aa3c 6d8b b3bd ec19 dfbc 09e0 2ebd
000000a0: b3e3 a5bd 7476 9fbd 9f7f 3f3d 30e4 67bd
000000b0: 2e5c 83bd 398a 14bd 3fcd e0bb cce9 4a3d
000000c0: 8807 b3bd 92b0 3ebd 679c 5ebc 27be 563c
000000d0: fb2f 6abd 7f05 1ebd 2f8c 76bd cfe0 74bc
000000e0: 6a05 fe3c 43cc 63bc 649c 1fbd ca7d 88bd
000000f0: 8282 7c3c 73b5 88bd 4e75 a53b 88e8 a9bd
00000100: cea4 aa3c a204 043d 159b 98bd 04cd 2dbc
00000110: 2870 38bd c1bd 37bd b461 953d aa6e 4cbd
00000120: 54b3 403d 8f82 d03c 4233 bb3d c2df 0cbd
00000130: 4578 a2bd 8e3c 393d 3a35 eebc 4466 41bd
00000140: bc00 3cbd cc87 7d3d bce9 85bd c078 493c
00000150: 8eaa 873c eefd 21bc 3032 233d 3a06 693d
00000160: 63fa 483d 9a83 813c 6db8 d33c 77fc 7e3c
00000170: 5381 10bd 2f77 73bd 1c35 74bb b26e fc3b
00000180: 4acc 253d 1202 663c 4d9d 19bc 2686 11bd
00000190: dce0 a33d 314e 8e3d 5a0f a23d d856 41bc
000001a0: 4c8a 27bd c45d 97bd 05f3 a7bd ca8b 9cbd
000001b0: 7a72 37bd 08b2 323d e951 9dbd 1731 cbbc
000001c0: 7025 433d 80c5 cc3c d06a 6fbc 80f2 07bd
000001d0: ae40 043c cddb 40bd 3f66 fc3c d6ce f63c
000001e0: d2fa 643c 6871 343d 57a3 8b3d abfe acbd
000001f0: cdbb 20bd 3421 a7bd 06f4 913c 7036 adbd
-0.004566542 0.065441504 0.062842086 -0.002891449 0.091813095 0.01416582 -0.054761343 0.02038371
0.020087434 -0.027516203 0.07541396 0.020954717 -0.03950152 0.018247996 0.02917444 0.060770053
-0.05680053 -0.07684739 -0.03264791 -5.1810126e-05 -0.07227568 -0.03152442 -0.071701504 -0.088931695
0.041619927 0.029716728 -0.0045899693 0.057806082 0.020526424 -0.013460605 0.06145745 0.08445614
0.036300305 -0.053398363 0.012050663 0.0495965 0.020764088 -0.08766828 -0.02723404 -0.042694125
-0.08100071 -0.07786265 0.04675257 -0.0566141 -0.06414066 -0.036264632 -0.0068604047 0.049539372
-0.08741671 -0.04655511 -0.013587094 0.013106859 -0.057174664 -0.03857946 -0.060192283 -0.014946177
0.031008441 -0.01390368 -0.038967505 -0.06664617 0.015411975 -0.06675234 0.005049384 -0.08296305
0.020830538 0.03223098 -0.074514546 -0.010607962 -0.045028836 -0.044858698 0.07294026 -0.049910225
0.04704602 0.02545288 0.09140636 -0.03439308 -0.07933096 0.045223765 -0.029078115 -0.04721667
-0.045899138 0.061897084 -0.06538722 0.012296855 0.016560819 -0.009887202 0.039842784 0.056890704
0.049066912 0.015809823 0.025844777 0.015563122 -0.035279583 -0.059439834 -0.00372631 0.0077036256
0.04047803 0.01403858 -0.009375882 -0.035528325 0.08001873 0.069485076 0.07913084 -0.01180049
-0.040903375 -0.07390931 -0.08200649 -0.0764385 -0.044786908 0.043626815 -0.07681639 -0.024803681
0.047643125 0.02499652 -0.014612868 -0.03319025 0.008072061 -0.04708462 0.030810473 0.030127924
0.013975816 0.044053465 0.06818264 -0.084470116 -0.0392416 -0.0816063 0.017816555 -0.08457649

exog_mlp.2.weight f4 [64, 128]
00000000: 967b 423d a029 6fbd 9db6 383d ed9a 53bd
00000010: d7b9 1ebe 9341 eebc 559b e03c 3409 f7bc
00000020: 62c7 193d aca2 2a3c 45e4 f7bc 1f3e 843c
00000030: 94af 653d 165c 66bd 90df ac3d a90b f23c
00000040: c630 3c3d 1572 8bbc 7bc9 863d 0fd3 70bd
00000050: 90a3 91bc cfb1 8d3d 49bd 08bd 35ce ab3d
00000060: 28b2 40bd 87d3 8cbd ba77 c03d 44bf 933d
00000070: ac3a a03c 717c 35bd 9e8d 9c3c 9a56 d1bc
00000080: 7355 443d 9034 f63b 8202 6abc d838 9cbd
00000090: 0413 d5bc 64f6 6b3d e921 8bbd 741e 123c
000000a0: f78b 8cbd 914f d139 a6a6 88bc 374f 53bc
000000b0: a40c 333c 3713 cfbc 2ec5 cebc 5639 2f3d
000000c0: 3c57 923c c85a 29bd f47c 3a3d 6eb9 c43d
000000d0: aa62 733d a339 7c3d c114 c93c d95c b83d
000000e0: 4b39 2ebb 3634 203d 6710 e53d 8b93 9f3c
000000f0: 9ea8 15bd 6978 9e3c f2dc 4a3c 15a5 503d
00000100: 1d85 febc 95f6 903d 7c34 923d 75fc 393d
00000110: 3c89 363c ee39 14bd c7d3 203d 2aae 35bc
00000120: c202 f8bc e3d8 c33d 07de 1bbd cc6f 793d
00000130: d9ee 6f3d e40e a13c 112d 873d 935e 88bb
00000140: 9832 5e3d 12ca 43bd 44e7 533d 78bf 8a3d
00000150: d4b9 23bd 391b 3b3d a0ff 43bd b9f3 8c3c
00000160: f44d a43d 1212 ba3c aefb 9f3c 198e 083d
00000170: 0fad 08bd 7656 b4bd e25a 6fbd 8fc0 ffba
00000180: 62f7 15bb efaf 31bc feea ef3a 84ab a5bd
00000190: ba74 4bbd 0d73 00bd e050 c9bc 7c16 573d
000001a0: 2484 e2bc 1649 2cbd 8d02 2e3c ed0f f43c
000001b0: e11c 983d 7e52 8a3c 6c06 f93c 542a aa3c
000001c0: 0944 733d aa58 123d 2b87 713d e22b 813c
000001d0: e9fa 873d 10cb 6abc c87c 2fbd 0b01 4dbd
000001e0: 51a7 563d ba7b 7c3d 4305 843d b5be 893d
000001f0: dc01 943d 5da9 feba 1350 753d 32a4 b53c
00000200: 3473 2abd 40dd 353d bbb4 5abd 1b83 f53d
00000210: 61e9 0fbc a01f e8bc 9149 68bd 6fb8 24bd
00000220: 789a 2d3d d4a7 343d ee81 ec3d a12b 523d
00000230: 09e0 813d 5c30 1a3d 2a84 b5bc c4d2 883d
00000240: 289e e93a 663f 8a3c 2e39 94bb 2a43 a23d
00000250: d64f 833d 5018 ad3d 0253 393d cc71 273d
00000260: 3133 b13c ba5e 53bd 8360 41bd 2dfd ed3c
00000270: 7582 2ebd 4652 d8bc 093f 123d bb52 de3d
00000280: c70a 413d e91c 73bb 75d9 4bbd 7213 143c
00000290: bbe3 3cbc 208c 0cbd d56a 7fbd 4d2a 873d
000002a0: f0fd a63d 86da 31bd 7675 9c3d cd0a 803d
000002b0: 143f 1c3d 4877 d5bb ee5f 0c3e 9a46 b0bc
000002c0: 5de0 aa3c 0f0a 883d 67a4 5a3c 9682 1bbd
000002d0: 1192 88bd d734 b13d af8b adbc 14dc 413c
000002e0: 4a7e 073e 168a e1bd 0f7d 2c3d 0190 8dbd
000002f0: 91a6 36bc 64de a6bc dc31 d93d ac20 423d
00000300: d42a c33d 52f4 b0bd 4ab4 da3d c9ac 0d3d
00000310: 9df4 d1bd 1785 8fbd 73de 0c3d ecb2 863d
00000320: b0b3 94ba b56d 17bd 627c ea3d 8b2c dabd
00000330: c7c0 2c3d 193b 75bd db65 443c 3301 ccbb
00000340: 91d7 513d 38f5 843d c6a0 013e 5591 f53d
00000350: aa88 1a3d 0ca2 1d3d 2ee4 05ba 7a67 8bbc
00000360: 1848 f03d a8c6 40bd 9480 f8bd 73b3 19bd
00000370: 61d9 5ebd 9d3c 9cbd eadc 403c b51a d33b
00000380: b043 85bc f30b 83bd ec1b 8f3d e5b0 483c
00000390: b8da 8f3d 045e b23d cef4 50bd ab69 553d
000003a0: 4603 a6bd 1c56 91bd 7533 103d e173 b93d
000003b0: f4e7 c63d 5be2 0f3d 1ec6 2dbd 9e48 b03d
000003c0: 53e3 31bd e4eb ac3d 5029 39bd dc3b 6fbd
000003d0: 45ae 893d ab52 a73d 3a60 fcbc c5b5 c83c
000003e0: abaf 8fbb bb08 793d 9b73 a1bd 8c02 203e
000003f0: 3576 84bd 3f31 683d d776 8c3d c910 d6bc
0.047481142 -0.058389306 0.04509603 -0.05166142 -0.1550058 -0.029084003 0.027417818 -0.030155756
0.037543662 0.010414761 -0.030260215 0.016142903 0.056075647 -0.056240164 0.08441079 0.029546576
0.04594495 -0.017022172 0.06581398 -0.05879503 -0.017778188 0.0691868 -0.03338364 0.0838894
-0.047044903 -0.06876283 0.09397836 0.072142154 0.019559227 -0.04430813 0.019110497 -0.02555399
0.047933053 0.00751359 -0.0142828245 -0.076280296 -0.026010044 0.057608023 -0.06793577 0.008918393
-0.06862634 0.00039922868 -0.016681027 -0.012897304 0.010928307 -0.025277717 -0.025240507 0.04277929
0.017863862 -0.04134634 0.04552932 0.096056804 0.059420265 0.061578404 0.024546029 0.09002084
-0.0026584442 0.039112292 0.11184769 0.019479534 -0.03653776 0.019344525 0.012381779 0.050938684
-0.031069333 0.07078282 0.07138917 0.045406777 0.011141118 -0.03618806 0.039264467 -0.011088887
-0.030274753 0.09562852 -0.03805354 0.060897633 0.058577392 0.01966042 0.066003926 -0.0041616648
0.05424747 -0.04780013 0.051734224 0.06774801 -0.03997214 0.04568026 -0.047851205 0.01720606
0.08022681 0.022713695 0.01952919 0.03333864 -0.033368167 -0.088055536 -0.058436282 -0.0019512343
-0.0022883047 -0.0108451685 0.0018304286 -0.08089355 -0.049671866 -0.03135972 -0.024574697 0.052511677
-0.0276509 -0.042061888 0.010620725 0.02979275 0.07427383 0.016885038 0.03039857 0.020772137
0.059391055 0.035729088 0.058966797 0.015767995 0.06639654 -0.01433064 -0.04284361 -0.050049823
0.05240566 0.061641432 0.06446316 0.067258276 0.07226917 -0.0019429136 0.059890818 0.022173021
-0.041613773 0.044400454 -0.053395014 0.11987897 -0.008783669 -0.028335392 -0.056710783 -0.040214952
0.04238364 0.044105366 0.115482196 0.05131114 0.063415594 0.037643775 -0.022157747 0.06680825
0.0017823623 0.016875934 -0.004523418 0.07922967 0.06411712 0.08451903 0.045245178 0.04088001
0.021630855 -0.05160401 -0.04721118 0.029051388 -0.042604882 -0.026406419 0.035704646 0.10855623
0.04712942 -0.003709609 -0.04976793 0.009037839 -0.011528905 -0.03431332 -0.062357742 0.06599865
0.081539035 -0.04342129 0.076395914 0.0625206 0.038146093 -0.0065144636 0.1370847 -0.02151804
0.020858938 0.066425435 0.013344861 -0.037966333 -0.06668485 0.086526565 -0.02118477 0.011832256
0.13231769 -0.11012666 0.042111453 -0.06912232 -0.011148111 -0.020369716 0.10605213 0.04739444
0.09529653 -0.086403504 0.10678919 0.03458861 -0.102517344 -0.07007807 0.03439183 0.065770954
-0.0011345055 -0.03696986 0.114495054 -0.10653027 0.042176034 -0.059870813 0.011987175 -0.006225729
0.05123097 0.06492084 0.12658986 0.119906105 0.03772799 0.038484618 -0.0005107549 -0.017017115
0.11732501 -0.047064453 -0.12133899 -0.03752465 -0.054406527 -0.076287486 0.01177142 0.0064423927
-0.016267627 -0.063987635 0.069877476 0.012249206 0.07024139 0.08709338 -0.051014714 0.052102726
-0.08106093 -0.07096502 0.035205323 0.09055305 0.0971221 0.03512798 -0.042425267 0.08607601
-0.043429684 0.0844343 -0.045205414 -0.058406696 0.067226924 0.081700645 -0.030807603 0.024500737
-0.004384955 0.06079934 -0.07883378 0.15625972 -0.06467859 0.05668759 0.068586044 -0.02613105

exog_mlp.2.bias f4 [64]
00000000: 38c6 93bd 5f4c 2c3d fb66 d73c d55b 8a3d
00000010: 55f2 923d c163 b2bd 066e a63b 98e1 9bbc
00000020: 200f 863d 7e05 343c a530 953d 8111 9dbd
00000030: 3bc8 f1bc c228 993c 7771 b7bd ea6b 143e
00000040: 546d 903c 9926 e23c c00b 87bd 93e9 763d
00000050: 4649 02bd 9d0c 28bd 7ab6 1ebd ff09 93bd
00000060: beb7 4c3d d96b 4dbd 415f 113d ae60 a3bd
00000070: ec24 77bd db4a 5cbd 6580 59bd 63a3 20bc
00000080: 5ca2 773d fe5b 6ebd 8655 4dbd 3433 8d3d
00000090: 8b7e 9f3d 000f 1d3c a7e7 84bd 989d e13c
000000a0: 1b88 3a3d 87ad 34bc 1b87 8dbd d9e2 6fbd
000000b0: c710 a83b 7623 c2b9 7fa3 cabc a535 e63c
000000c0: f4a0 973d 445f 813d c86c 81bd c0ff 523d
000000d0: 6079 46bd 0685 973d f91e 9cbd d065 17bc
000000e0: eb37 823d 0a66 05bd 3e2f 243c d303 46bd
000000f0: 0db1 39bd 2de9 2fbd 5f7e 7f3d 2ea7 7a3d
-0.072155416 0.04206502 0.026294222 0.06755797 0.071751274 -0.08710433 0.005079034 -0.01902847
0.065458536 0.010987638 0.07284669 -0.07669354 -0.029514423 0.018696193 -0.089571886 0.14494291
0.017630257 0.027606295 -0.06594038 0.060281347 -0.03180816 -0.041027654 -0.038748242 -0.07179641
0.049979918 -0.05015168 0.03549123 -0.079774246 -0.060337946 -0.053782325 -0.053100962 -0.009804579
0.060457572 -0.0581932 -0.05013039 0.06894532 0.07787808 0.009586096 -0.06489497 0.027540967
0.045539957 -0.0110277 -0.06910535 -0.05856595 0.005128953 -0.00037028984 -0.024736164 0.028101752
0.07403746 0.063169986 -0.063195765 0.051513433 -0.048455596 0.07398419 -0.07623095 -0.009240583
0.06358322 -0.032568015 0.010021029 -0.04834349 -0.045334864 -0.042946983 0.062376376 0.06119459

head.0.weight f4 [128, 96]
00000000: 8af9 d63c 7d78 b3bd 269e 1d3d 6c9b cc3d
00000010: 8353 78bc 9519 39bd 5170 3f3d 54dc c33d
00000020: 0d4a 863d d4f2 f93d d643 f2bc e890 8f3d
00000030: f8b2 0c3c 0115 b7bb 56a7 073e 6331 543d
00000040: 0734 0bbd 3f83 9d3d e7fb 60bd be86 963c
00000050: bbdb 9bbd 6ec3 60bc 8171 67bb df51 783c
00000060: 77ec 6b3d f87a 7e3d 0d1c 323d 1621 923d
00000070: 8a19 1dbd b005 513d a041 b63d f8a9 9f3b
00000080: 7ca9 58bc d400 993d d34f bdbd 69d0 f93d
00000090: f392 ad3d a88b acbd d4a2 96bc e13a bebd
000000a0: 1058 66bd 2269 3a3d e674 2fbb 28f5 9f3d
000000b0: 992f 933d 833d b73d 0ec2 54bb 7ea1 dcbd
000000c0: 16da f5bc d9ac c53d 622b cdbd 1856 db3d
000000d0: 3a56 c13d 205c 35bc ee14 0ebd e857 82bd
000000e0: b61e bb3d 33dd 923c 4fee 003d b4d9 4abd
000000f0: 9f9d 883d e28d 983c c635 993d c8e8 ab3c
00000100: a6bd 2a3b c5df 453d bad4 5839 c346 513c
00000110: b142 63bd 38e4 c5bd d495 1a3b 5f96 a1bd
00000120: c629 b53d c3f0 953d 15da 07bd 7a9b bf3d
00000130: c9c2 a4bd 602b c9bd ea40 a63d 9c00 24bc
00000140: 085d a7bb 63df efbc 4e80 c23d 8f8d 1f3d
00000150: 2e25 45bb 2be5 d53d f6f9 ce3c 55f9 98bd
00000160: 35c8 683d 223a 8f3d 6799 77bd 0ef4 63bc
00000170: 1dcf c53c bdb1 7ebc 5ca4 b7bb 5b1b 8d3d
00000180: f364 8b3c 2848 d6bd 233e bf3d 1f9e 303d
00000190: fe98 cabd 7edb a03d 29fe aabd 9e57 b0bc
000001a0: e975 11bd 2993 27bd d69d 913c 794b 923c
000001b0: 86d3 fd3c a053 773b 6f2a bebd 9a82 4b3c
000001c0: 03d3 7ebc bcb1 fcbc f736 c7bd 4916 b7bd
000001d0: 51a2 813d ae26 4fbd 086d 383d d5ff 8c3d
000001e0: 3191 0d3d d6ee 24bd 7dd6 48bd d10f b23d
000001f0: b73c a53d e109 743d bfba ab3d fae6 a8bd
00000200: d5ee 693c 8ac7 b6bd 1ec1 c63c c241 08bb
00000210: 123c bebd 3477 0ebd 157f b6bb 697f 64bc
00000220: 3847 443d 4318 8ebd fcff 76bd 752e 06bd
00000230: b533 3d3d 519c 06be 73b8 7a3d 48c1 ef3c
00000240: e39b aa3d 8ddf 0ebd 8ab7 9ebd fb06 093d
00000250: 018d 943d 80ef ad3d 7f03 b3b9 880d 563d
00000260: c741 20bd 7619 46bc 78d0 8cbd 3047 e13c
00000270: cbba 9f3c abe8 14bd 280f 983d d524 613d
00000280: df58 963d 365d 823d 26e9 d7bd 3916 1d3d
00000290: cdf2 983d 8a8f bebd 47d1 9dbc de48 84bc
000002a0: 3d79 b43d c908 4cbd d5b2 633b 6fb2 023e
000002b0: bb24 9c3d 3635 463d e3f1 a03d 4f26 fbbd
000002c0: d979 733c 0574 9bbd 114d 2dbd 0d93 d03d
000002d0: 4ad3 bc3d 783d 773d b5f9 6cbd 15a0 853b
000002e0: 0572 153e 3dea ef3c 4ff5 40bd 9ea7 953d
000002f0: 285e 38bd 13bb be3d 6539 47bd 2ba3 013d
00000300: c49d 2bbd 2e3e 81bd 134c c2bc 7468 e43c
00000310: 910c 08bd f3c0 993d f78f 20bd 04fd 1dbd
00000320: 8328 88bd 2dfb 3ebd ba2a 923d 68ec c73d
00000330: ab9e a1bd e44e 163d 1c7f 723d b83c 57bd
00000340: e2b6 babd 03f6 d23c 2eb6 bebd c276 b23c
00000350: 4752 b43d 09f1 b93b 70ea 8e3d 397f 893d
00000360: b36c 693d 4cdb 0abd 3106 2bbd 16a9 bebd
00000370: 5c04 75bd f10b 613d d5e2 363d b9a1 6dbd
00000380: 4443 713c 9538 77bc d2af 523d 1614 64bd
00000390: a0aa 86bb 64b5 c63c 2b7d 533c fce3 e0bc
000003a0: f11c 713d 5f34 8cbd f286 b8bc 4c1e b6bd
000003b0: a8aa 3b3d 3585 4ebd b544 513d 0907 51bc
000003c0: 0080 27bd 18a4 9f3d cbe7 92bd 23c7 6a3d
000003d0: 7911 b33d 5bc5 c2bd 6fe5 283d 217d b7bd
000003e0: 79ea 5e3d e2f7 83bd 1391 f6bc 4dd5 4ebd
000003f0: 9388 403d 7dca 00bc bda2 a7bd 1b20 9cbd
0.026242036 -0.08763216 0.0384809 0.09990582 -0.0151566295 -0.045190413 0.046737973 0.09563509
0.06557093 0.12204519 -0.029573362 0.070100605 0.008587591 -0.0055872207 0.13247427 0.05180491
-0.033985164 0.07691049 -0.054927733 0.018374797 -0.0761027 -0.013718469 -0.0035315456 0.015156238
0.057598557 0.06212899 0.043483783 0.07135217 -0.038354434 0.051030815 0.08899236 0.004872557
-0.013224002 0.07470861 -0.09243741 0.12197954 0.08475294 -0.08425075 -0.01838819 -0.09288574
-0.056236327 0.04551042 -0.0026772558 0.07810432 0.07186813 0.08947279 -0.0032464298 -0.1077299
-0.030011218 0.09652109 -0.1001804 0.107097805 0.094402745 -0.011069328 -0.03468793 -0.06364423
0.09136717 0.017927742 0.03147727 -0.049524024 0.06670689 0.018622342 0.074809596 0.020985022
0.002605298 0.048309106 0.00020678612 0.012773219 -0.055483524 -0.0966267 0.002358784 -0.07890009
0.08845858 0.07321312 -0.033166964 0.09355827 -0.08044965 -0.09822726 0.0811785 -0.010009911
-0.0051075257 -0.029281324 0.094971284 0.03895336 -0.0030081975 0.10444101 0.025265675 -0.07469431
0.056831557 0.0699351 -0.06044903 -0.013913168 0.02414661 -0.015545306 -0.00560431 0.06889983
0.01701591 -0.104629815 0.093380235 0.043119546 -0.09892462 0.07854365 -0.083492585 -0.021526154
-0.03551284 -0.040911827 0.017775457 0.017858254 0.030984651 0.0037739053 -0.09285437 0.012421275
-0.015553239 -0.03084647 -0.097272806 -0.089397974 0.063297875 -0.050573997 0.045025855 0.068847336
0.034562293 -0.040266834 -0.049032677 0.08694423 0.08068221 0.059579734 0.08385228 -0.0824718
0.014278133 -0.08924778 0.024262007 -0.0020791148 -0.09288801 -0.03478165 -0.0055693486 -0.013946393
0.047919482 -0.06938221 -0.06030272 -0.03275915 0.04619189 -0.13145567 0.06121106 0.029266968
0.08330514 -0.034881163 -0.07749851 0.033453923 0.07253457 0.084929466 -0.00034144145 0.052259
-0.03912523 -0.012091031 -0.068757 0.027499765 0.01949825 -0.036354702 0.07424766 0.054966766
0.073411696 0.06365435 -0.105425164 0.03835127 0.074681856 -0.09304722 -0.01926483 -0.016148027
0.08812187 -0.049813066 0.0034744043 0.1276338 0.07624193 0.04839059 0.07858636 -0.12263166
0.014860594 -0.07590488 -0.042309824 0.10184298 0.09219988 0.060361356 -0.057855327 0.004077921
0.14594276 0.029286498 -0.047108945 0.07307361 -0.04501167 0.09313025 -0.04863872 0.03164975
-0.041898504 -0.06310688 -0.023717916 0.027881838 -0.03321511 0.07507505 -0.039199796 -0.038571373
-0.06648352 -0.04662626 0.07137056 0.09761888 -0.07891592 0.03669633 0.059203252 -0.05254814
-0.091169134 0.025752073 -0.09312092 0.021785144 0.08804756 0.0056744856 0.06978309 0.06713719
0.05698843 -0.033900544 -0.04175395 -0.09309594 -0.05981861 0.05494303 0.044649918 -0.05801556
0.01472551 -0.015089174 0.051437207 -0.055683218 -0.0041096956 0.024256416 0.01290826 -0.027452461
0.05886549 -0.068459265 -0.022525284 -0.088924974 0.045817047 -0.050420005 0.051090915 -0.012758025
-0.040893555 0.0779497 -0.07173117 0.057318818 0.08743567 -0.09510299 0.04123443 -0.08959413
0.05442283 -0.06443764 -0.030098474 -0.05049639 0.047005247 -0.007860777 -0.08185337 -0.07623311

head.0.bias f4 [128]
00000000: 4e46 9b3d fd87 d7bc 7979 8e3d dab4 0e3b
00000010: c8b4 d7bd d7a5 933d 5ed2 05bd faf4 0f3d
00000020: 5f59 273c 12c4 e1bd e2d7 b9bd 1b8a 9abd
00000030: 5d99 603d 332f 8f3d 28e7 16bd 3273 a4bc
00000040: 0d1b a83d 3853 1dbd 4f6e d43d ac26 513d
00000050: 3477 913d eef8 ffba 7367 203d d973 b73d
00000060: 5067 9b3d 4718 a6bd 888a 7cbc 06a5 bc3d
00000070: 901f bfbd 62cb 5e3c c5c4 bebd 55b7 573d
00000080: a9db 6abd b7ea c8bc 7759 4f3d 5c28 dabc
00000090: b00b 99bd 4c17 833d ceb8 a3bb 49e3 b03d
000000a0: 8d79 c5bd 64f0 8cbd 01f0 2b3d f0f1 afbd
000000b0: a6f1 81bd 94c0 ae3d 87b7 4dbd bdf6 80bd
000000c0: 3ef5 f43b d0ca 933c ee48 29bd 79c1 323d
000000d0: 6599 b5bc 0510 90bc ee0c 96bd e501 88bc
000000e0: a643 27bd 3cc2 8a3d 94f1 27bc b147 adbb
000000f0: e67a 073a 62af e03b b7d2 2ebd 35d1 c23d
00000100: 6821 c53d 6053 ca3d 49b6 babb 3abc ac3d
00000110: 2e4a 92bc af14 a3bd 8662 51bd 1ff9 5e3d
00000120: 570d a6bc 8fdf ac3d d174 cdbc 6fd9 4ebc
00000130: 8510 67bc 2e1f c6bd 68f7 bd3d c346 6a3d
00000140: 91de 85bc e052 8bbd 7933 633d 17c4 9f3d
00000150: ab9d a03c cf31 88bd 47de 92bd 3483 b23d
00000160: 482f 95bd bfdd eb3c 24c7 b33d 02e5 a33d
00000170: 4fa3 023d 899b 133c e9a7 ab3c 806b 9cbd
00000180: 12bb 7abc 4c0b 77bd 0a67 c83d d9c3 b1bd
00000190: b419 43bb a598 8a3d 2190 b4bb cf44 b73d
000001a0: 47f2 87bd 6af8 353d 7e50 75bd 1964 813d
000001b0: 40cd 50bd c66a 79bd 57f3 473c ea60 9b3d
000001c0: 9f3f 16bd 4506 873d e233 84bc c905 753d
000001d0: c938 303c bc7f d03d 70c8 b2bb 627b adbd
000001e0: b0e3 6b3d cb42 45bd 6a6e adbd acc5 6fbd
000001f0: bc92 b5bd 8343 8c3d 5586 a73d 51fe acbd
0.07581769 -0.026309961 0.06956763 0.0021775276 -0.10532528 0.07209366 -0.032671325 0.035145737
0.010214179 -0.110237256 -0.090743795 -0.07545873 0.05483376 0.069914244 -0.03684154 -0.02007446
0.082082845 -0.03840944 0.10372602 0.05106227 0.07102814 -0.0019529143 0.039161157 0.08957643
0.07588065 -0.08110099 -0.015413888 0.09211163 -0.09332192 0.013598295 -0.093148746 0.052665073
-0.05733839 -0.024525983 0.05062243 -0.026630573 -0.07472932 0.06400928 -0.0049963957 0.08637101
-0.096423246 -0.068817884 0.041976932 -0.08591068 -0.06344919 0.08532825 -0.050223853 -0.062970616
0.007475524 0.018041044 -0.041329317 0.04364154 -0.02216787 -0.017585764 -0.07326685 -0.016602466
-0.040836 0.067753285 -0.010250468 -0.0052880873 0.00051681546 0.0068568448 -0.042681422 0.09512559
0.09625512 0.09879184 -0.0056979996 0.08434339 -0.017857637 -0.079629295 -0.05111935 0.0544368
-0.020270033 0.08441078 -0.025080116 -0.012625082 -0.01410306 -0.09673916 0.092757046 0.05719639
-0.01634148 -0.068029165 0.05546901 0.07801073 0.019606432 -0.06650125 -0.07171302 0.08716431
-0.07284409 0.02879226 0.087782174 0.08002664 0.031894024 0.00900925 0.02095409 -0.076376915
-0.01530339 -0.060313508 0.09785278 -0.08679933 -0.002976996 0.06767396 -0.0055103456 0.08948671
-0.066380076 0.04442636 -0.059891216 0.0631792 -0.05097699 -0.060892843 0.012204013 0.07586844
-0.036681768 0.06592993 -0.01613802 0.05981997 0.010755726 0.101806134 -0.005456023 -0.08470799
0.057590187 -0.048159402 -0.084683254 -0.058538124 -0.08865878 0.06848814 0.08179919 -0.084469445

head.2.weight f4 [24, 128]
00000000: 8f2a 4a3d faa8 72bd e6ab 85bd 76ee c8bd
00000010: 1844 d0bc 50c7 b739 2ea1 a33c b705 e0bc
00000020: 573a b43b 5c76 3fbd ccc7 9c3c 69a6 e0bb
00000030: b9d4 3f3d e5ad 3d3d 566c f2bc 8de4 6139
00000040: 8932 75bd de2c 7dbd 9bc0 253e afbb 993c
00000050: 3aea 3bbd fa63 4d3d cb30 623d 7b02 063e
00000060: fefd cdbc 46ea 0b3d b061 92bd ce3d b0bc
00000070: 5b57 9fbd ed7e 7a3c 2bcf 6abd 3eb7 aa3c
00000080: 8ec1 123d bda5 003e 1615 9d3d a85f 10be
00000090: da1b a2bc fa56 8e3d 5b34 93bd a57f 933d
000000a0: 275b be3c 926e 2bbc 72c9 a73d 4579 483b
000000b0: 6c54 d33c a6e4 a6bd 87af da3d 422e a9bd
000000c0: f808 afba d97b aa3b 4481 bd3c 14b0 9abd
000000d0: 6ba8 05bd 6aaf ea3c 0072 90bd e1d8 91bc
000000e0: 04e1 e83d 515a 493d 6800 85bc 5fae 2abd
000000f0: 157e 9abd 57b1 4dbd 96d4 ce3c 84fc 7f3d
00000100: 9c31 863b 2069 13be 5680 ae3d 235b 14bc
00000110: 8685 bc3d 1ffa 483d e7c4 6e3d 8b41 e73c
00000120: c262 dabc 980b 7c3d 1991 ad3c 81c6 3d3c
00000130: d2f3 c13c 3570 6a3c bcd0 67bd 08a1 50bd
00000140: f5c8 bcbb b5c3 03bd 299f 483c 3353 1e3d
00000150: 286d 703d ce10 30bd 0ab8 143d e244 583d
00000160: fe71 823d 20de afbd 9ac7 ecbc 729f cabc
00000170: 442a ba3d 5391 2dbd 0e4d 94bb 7813 923d
00000180: 0734 dbbc 8cd2 fb3c 38b2 39bc 1d11 213c
00000190: 52c6 8ebd bc5a e0bc 165b c83d e185 163d
000001a0: 92e7 e53c b01b 0abc 203c d33d fbf8 69bd
000001b0: 9052 1e3d af82 2e3c b01f ae3d 9f5a 2c3c
000001c0: c69a a93d c810 24bd c8fc 933d ead2 513d
000001d0: 24f7 a4bd bb0c 1b3e 7c9e a33c 193d 923d
000001e0: 7d12 2fbd 66ae e4bc 0c92 1c3d 8017 1fbd
000001f0: d7b4 9dbd 38e4 4b3c 6f6d c43d 6f36 503d
00000200: b4df 80bd b7ce 2d3d 8743 cd3c 6b38 1a3d
00000210: 4836 36bd 690b b3bc 91ac efbc f149 c43c
00000220: 7ed9 73bd 1239 5ebb ef68 ca3c afdd 333d
00000230: 17f1 bf3d 60ad 813c 8702 0fbe 35e7 993c
00000240: 522a 203d bde1 1ebe cb9a e9bc 1999 5e3d
00000250: c1df 543d 7f64 3ebc 3710 67bc be60 843c
00000260: 9492 863d de17 063d 7dfb 08bd 2bbd 80bd
00000270: a775 783d 3a70 0d3d 7bc1 90bd b30b ad3d
00000280: 050b 01bd 8bcf 2cbb 24b1 23bd 2e1a fcbd
00000290: 3639 23bd ed70 afbc 2283 0f3c 167b 803d
000002a0: 5ff1 e9bc ebf0 be3d 8af0 1abc 4af3 d1bc
000002b0: 6661 56bd e3c0 62bd 0cf5 b93d 5687 f5bc
000002c0: 3253 353d 64f7 833d 6201 1cbd 3407 20bd
000002d0: 2fb6 45bd 711b 2f3d bbbc 8cbd dedb 88bd
000002e0: 67e3 b3ba 6807 95bb 15fd 153d 9d64 493d
000002f0: ccff 9b3d 6177 a93d c403 b73d 4b0e 80bd
00000300: d397 a03c 8b93 5ebd 7c51 ab3d 7692 b0bd
00000310: ed51 53bd e06c 503c 654c a8bd 47f8 83bc
00000320: 0aee d6bc 52cb 5c3d 4407 623d 1fee e13c
00000330: e833 f13b 8e90 26bd aed5 91bd 66c0 42bd
00000340: a496 d33d b429 9a3d 7539 9a3d eafc 14bd
00000350: 85f0 113d aa68 853c 106a fd3b 602e c73d
00000360: 7213 b03d 83b8 aabd cca6 d13b ba5f c03b
00000370: d407 bb3d 1fc3 b93c c89b 663d b19c 85bd
00000380: 8255 ab3d 7081 4fbd 7d09 993d 22cd f63c
00000390: b5ab 383d a7a6 90bd 6f21 47bd 8e9d 93bd
000003a0: 7c63 4cbd 4c9e 323d 2837 363d b1d5 ccbd
000003b0: 1cb3 473a 24f4 c43b cf48 133d b619 3abb
000003c0: 9920 db3d f3ca 0c3d d326 6b3d 5e7d 813d
000003d0: 99db 01be d201 23bb f846 353d 8332 06bc
000003e0: e15d 4a3d f809 2cbd 482e a4bd a1ab 073c
000003f0: b3ef 70bd 2775 acbc d8b1 bc3d c59c 12bb
0.049356993 -0.05924318 -0.06526928 -0.09811108 -0.025423095 0.0003505298 0.019974317 -0.027346475
0.0055001187 -0.046743736 0.01913824 -0.006855775 0.046833728 0.046308417 -0.029592674 0.00021542814
-0.059862647 -0.061810367 0.16186754 0.018766252 -0.045877673 0.050144173 0.055222314 0.13086884
-0.025145527 0.034158967 -0.07147539 -0.021513846 -0.077803336 0.0152890505 -0.057326477 0.02083933
0.03582912 0.12563224 0.076700374 -0.1409899 -0.019788671 0.06950183 -0.071877204 0.07202081
0.023236824 -0.010463374 0.081927195 0.003058986 0.025797091 -0.0814908 0.106780104 -0.08260776
-0.0013354113 0.005202752 0.023132928 -0.075531155 -0.03263132 0.028648097 -0.07052994 -0.017803611
0.11371043 0.049158398 -0.016235545 -0.0416702 -0.075435795 -0.050217953 0.025247853 0.062496677
0.0040952694 -0.14395571 0.08520572 -0.009054932 0.09205155 0.04906666 0.05829325 0.028229496
-0.02665842 0.061534494 0.021187352 0.011582972 0.023675833 0.014308979 -0.05659555 -0.05093482
-0.0057612606 -0.032169063 0.012244978 0.038653564 0.05869785 -0.042984776 0.036308326 0.052800067
0.063693985 -0.08587289 -0.028903771 -0.024734233 0.09090093 -0.04237492 -0.004525787 0.071326196
-0.026758207 0.030740045 -0.011333995 0.00983074 -0.0697142 -0.027387016 0.09782998 0.03674877
0.028064523 -0.008429453 0.10314202 -0.057122212 0.038652956 0.010651275 0.08502138 0.010519653
0.08281474 -0.040055066 0.072259486 0.051226534 -0.08054951 0.15141575 0.019973032 0.0714056
-0.04274224 -0.02791519 0.03822522 -0.03884077 -0.07700508 0.012444548 0.09591185 0.050833162
-0.06292668 0.042433467 0.025056614 0.03765146 -0.04448536 -0.021856027 -0.02925709 0.02396104
-0.05953359 -0.0033908528 0.02470824 0.043912586 0.09372156 0.015829742 -0.13965808 0.018787006
0.03910286 -0.155158 -0.028516194 0.054345224 0.0519712 -0.01162064 -0.014102987 0.016159412
0.06570926 0.032737605 -0.033442963 -0.06286081 0.060659077 0.034530856 -0.070681535 0.08449497
-0.03150465 -0.0026368822 -0.039963856 -0.12309681 -0.039849482 -0.021416152 0.008759292 0.06273477
-0.028557478 0.09323295 -0.009456763 -0.025628705 -0.05233898 -0.055359732 0.09079942 -0.02997176
0.044268794 0.064436704 -0.038087256 -0.03906937 -0.048269447 0.04275078 -0.06871935 -0.06682561
-0.0013724387 -0.004548002 0.03661831 0.049168218 0.07617149 0.08274723 0.08936265 -0.06252726
0.019603645 -0.054339927 0.08365151 -0.08621685 -0.051591802 0.01272127 -0.08217696 -0.016109599
-0.026236553 0.05390484 0.05518271 0.027579365 0.007360924 -0.0406652 -0.07120834 -0.047546767
0.10331467 0.075274855 0.0753049 -0.03637401 0.035629768 0.01628526 0.007733591 0.09725642
0.08597459 -0.08335974 0.0063980576 0.0058707865 0.091323525 0.022676049 0.05630091 -0.06524027
0.08365919 -0.05066055 0.07472513 0.030127112 0.045085628 -0.070630364 -0.04861587 -0.072077855
-0.049899563 0.043607995 0.044486195 -0.10001696 0.0007617937 0.006010549 0.035958108 -0.0028396673
0.10699577 0.034373235 0.057410073 0.0632274 -0.12681426 -0.002487291 0.044257134 -0.008190754
0.049405936 -0.042001694 -0.0801664 0.008280666 -0.058822345 -0.021051956 0.092136085 -0.0022371274

head.2.bias f4 [24]
00000000: 85bb 873d 8674 c6bc ccac 643d 7600 a9bc
00000010: 5192 2abd d0f2 233c 3563 c6bc d73a 35bd
00000020: 0534 903c eab9 423d ec31 343d 9e5f 683d
00000030: f440 36bc 1007 fc3b 4d28 43bd 0ab0 a6bc
00000040: 32d7 c83d e652 953d fe43 983d a5a3 253d
00000050: 2beb 8dbc 0d8f f53c 3edc 05bd 78ee b43c
0.066275634 -0.024225485 0.055828854 -0.020630103 -0.041643444 0.0100066215 -0.024217227 -0.044245567
0.01760293 0.047540583 0.04399292 0.056731813 -0.0111238845 0.0076912716 -0.047645856 -0.020347614
0.0980667 0.07291202 0.074348435 0.040439267 -0.01732405 0.029975438 -0.032680742 0.022086367
