runs_lstm24_roll/cnn1d/exp_20260213_185249/ckpts_flat/last_w0007_TR20250826-20250922_VA20250923-20250929.pt (torch, 590821 bytes, 36 tensors)

conv.0.weight f4 [32, 1, 5]
000000 20 38 c2 3e 71 32 cf 3e 83 70 91 bd 4f 0e e8 3e
       0.37933445 0.4046817 -0.07101538 0.45323417
000010 ac ed db bd 87 0b 9e 3d ed 24 4b be 14 45 bc 3e
       -0.10738692 0.077170424 -0.19838305 0.36771452
000020 3b 24 ee 3e 16 e2 c6 be d3 f9 db 3e 53 e9 d5 3d
       0.46512017 -0.38844365 0.42964038 0.10444894
000030 e4 e5 b9 3e 5c 4d a1 3d 09 62 7e 3e 9c e4 80 bd
       0.36308205 0.07876083 0.24842085 -0.06293604
000040 13 62 d9 3e 93 fc 05 3e 02 5b 8a be d5 69 14 3e
       0.42457637 0.1308463 -0.27022558 0.14493497
000050 63 5d 82 3c bd cd d2 bd 29 68 c6 be 9d 67 12 3f
       0.01591367 -0.10293148 -0.38751343 0.5718935
000060 5c 8a 6e be 67 f5 f1 bf db 23 16 be dc cb a7 3e
       -0.23294967 -1.8903016 -0.14662115 0.3277272
000070 8f 1d 11 3f 25 1e 52 bf e5 9e ec 3e e8 7e d4 be
       0.5668573 -0.82077247 0.46214977 -0.41503072
000080 50 43 bf 3e 25 35 85 3d 54 52 53 be bc ea 9b 3e
       0.37356043 0.06504277 -0.20636874 0.30452526
000090 01 1a c5 3d da 0b db 3e 08 a0 79 3d eb bb ef bd
       0.096241005 0.4278248 0.060943633 -0.117057644
0000a0 c8 31 d0 3d 48 d0 05 be 33 93 5c 3e 5c 45 e7 3e
       0.10165745 -0.13067734 0.21540527 0.45170105
0000b0 0f eb 9a 3e 71 42 84 be 7c 6b 99 3e f5 0b 15 3e
       0.3025746 -0.2583194 0.29964817 0.14555342
0000c0 0d ba 78 3e 0e 5a bf be e1 98 c2 bf 84 8f 4d 3c
       0.24289723 -0.37373394 -1.5202905 0.012546424
0000d0 59 cc ef bd f4 7e 00 3f c8 83 9c 3e 48 f9 63 3e
       -0.11708898 0.50193715 0.3056929 0.22263062
0000e0 c0 6d 0e 3e e7 30 eb bc 50 0b cc 3e 2c d5 b3 be
       0.13909054 -0.028709842 0.3985238 -0.35123575
0000f0 87 b5 b5 be c3 34 7b bf 37 39 ec 3e 8b 44 8c be
       -0.35490057 -0.98127383 0.461374 -0.27396044
000100 f7 fe 2b 3e f0 08 02 3e 14 2f 13 3f aa af e7 be
       0.1679648 0.12698722 0.5749371 -0.4525121
000110 2b 8d 0f bf e7 fb d1 b9 60 aa 02 3f e3 3a 6e 3e
       -0.5607478 -0.00040051268 0.5104122 0.23264651
000120 76 18 f5 3e 11 9e db be fc 2f 12 bf 7c 8f e5 be
       0.47870225 -0.42894033 -0.5710447 -0.44836032
000130 9e 8c 9b be 3d 5f 87 3e a8 b5 78 3e 27 14 01 3f
       -0.3038072 0.2643985 0.24288046 0.50421375
000140 fa 01 07 bf f3 9c bb be ac 5f d4 3e 0d b8 73 be
       -0.5273739 -0.3664318 0.41479242 -0.23800679
000150 a4 c2 b3 3e 09 65 d6 bd 4b 04 c2 3e 42 3f 5a be
       0.35109437 -0.1046849 0.378939 -0.21313193
000160 22 25 08 bf fe f9 cc 3e 67 9d 6a 3d 77 ae 2a be
       -0.5318166 0.4003448 0.057279017 -0.16668116
000170 63 f4 ae 3e cb 01 c4 3e 71 80 bd be e8 e7 d1 be
       0.34170827 0.38282618 -0.37012056 -0.40997243
000180 a6 14 15 3f 60 8e 3a 3e ea 09 9f be f2 e2 29 bf
       0.5823463 0.18218374 -0.3106225 -0.66361916
000190 e0 bf 8b bf e4 ad ce 3e 2c 69 97 bd 16 33 97 be
       -1.0917931 0.40367043 -0.07393107 -0.29531163
0001a0 18 3b 7c 3e b0 58 9c be 5f 23 c2 be 55 0d 7c be
       0.24631917 -0.30536413 -0.3791761 -0.24614461
0001b0 37 47 c8 be 2a bc 91 be 7d 40 42 3f ab 90 f4 3d
       -0.39116833 -0.2846387 0.7587965 0.11941656
0001c0 75 09 20 3e 0e af d1 be 77 55 5a be 92 20 0e be
       0.15628608 -0.4095387 -0.21321665 -0.13879612
0001d0 a1 de 18 3f e8 82 a9 be 64 09 51 bf 9b 2a e1 3c
       0.59714705 -0.33107686 -0.81654954 0.027486136
0001e0 d3 dd 02 bc 81 2b 31 be 08 96 45 be 1e 19 9b be
       -0.007987457 -0.17301752 -0.19295514 -0.302926
0001f0 ed 1a 9d be 71 a7 5e bf cb 87 06 be 44 f6 f5 be
       -0.30684605 -0.86974245 -0.13137738 -0.48039448
000200 b9 c4 1b 3f ac 52 21 be 6d ef f0 3e f2 13 29 3e
       0.6084705 -0.15754193 0.47057667 0.16511515
000210 fc 1d db be 65 72 bb 3e 2f 6f 16 be 00 c2 95 bf
       -0.42796314 0.36610714 -0.1469085 -1.1699829
000220 c6 ed f1 3e 60 f6 14 c0 95 ce 0b 3f e2 44 45 bd
       0.4725172 -2.3275375 0.54612094 -0.048161395
000230 02 3a 93 3e 54 75 15 bf 7e 74 0b 3f 37 da aa be
       0.28755194 -0.58382154 0.5447463 -0.3336961
000240 42 67 62 bb 3c 08 bf 3d 7f 49 7e 3e 8c 43 d6 3e
       -0.003454641 0.093277425 0.24832724 0.4184841
000250 a5 56 f0 3e db 44 a8 be 0a a1 ab bc 20 7a 56 be
       0.46941105 -0.32865033 -0.020950813 -0.20945024
000260 da 9d 32 3e a9 8f 36 bf e9 fe 20 3f 69 ed c2 be
       0.17443028 -0.7131296 0.6288896 -0.38071755
000270 89 97 a1 3e bc 58 93 3e 2f 63 43 3e 2f 5a 36 be
       0.31560925 0.28778636 0.19080804 -0.1780784

conv.0.bias f4 [32]
000000 b3 8b 57 3e 49 0e 2a bc af 32 d0 bd 33 25 0b bf
       0.21049385 -0.010379382 -0.10165917 -0.54353637
000010 8f d8 50 3a 25 e0 8c 3d bc 4a 99 be 7b 63 38 3e
       0.000796684 0.0687869 -0.2993983 0.18006699
000020 e9 57 00 bd 2a 8b 72 be 07 82 a3 be 33 ce e9 bd
       -0.031333838 -0.236859 -0.3193514 -0.114162825
000030 10 2c b8 bc 41 6d 10 bd e9 ae 30 be 49 ee 56 be
       -0.022481948 -0.035260443 -0.17254223 -0.20989336
000040 c8 e9 0d bf e3 00 9b bd f9 ab 71 3e 70 af 90 be
       -0.55434847 -0.075685285 0.23600759 -0.28258848
000050 c5 1d 43 be 0c bd 0c 3f dc 04 56 3d 55 25 2d bb
       -0.19054325 0.5497596 0.052250728 -0.0026419957
000060 92 e7 0a 3f 16 90 1e 3d b5 9c a7 3b d2 7c a1 be
       0.542596 0.03871163 0.0051151165 -0.31540543
000070 77 ef 81 3d b0 4b 74 bd a5 b4 85 bd 3a c4 d5 bd
       0.063445024 -0.059642494 -0.06528596 -0.10437818

conv.2.weight f4 [32, 32, 5]
000000 a4 e6 cc 3d 4d 85 f9 3d 88 36 27 3d f0 8b 8b 3c
       0.10004929 0.12183628 0.04082349 0.0170345
000010 e5 ea 1b 3d f9 a6 29 3d 0e 6c fa 3c e7 a6 5c 3d
       0.03806581 0.041419003 0.030569103 0.053870108
000020 e3 11 26 bd c4 f2 d3 ba 49 69 f3 3d 11 d2 a5 3d
       -0.0405444 -0.0016170372 0.11885316 0.080967076
000030 6a ce 38 3d dc c2 f7 bb 31 74 df bb 59 d6 21 bb
       0.045118727 -0.007561071 -0.006819271 -0.0024694412
000040 1a b3 1c 3d 2c c6 65 3d cf 1b a2 3d 3e cc a1 3d
       0.038256742 0.056097195 0.0791546 0.07900284
000050 5f e6 91 bd cc 29 ef bd f4 6b a8 3e cd 38 c2 3e
       -0.07124018 -0.11677894 0.32894862 0.3793396
000060 6b 08 75 3e c1 25 56 3e ba 2b ea be cb 22 b5 bf
       0.23928992 0.2091284 -0.45736486 -1.4151243
000070 01 65 91 bf 43 21 a0 bf ba e8 db 3c ef 57 ec 3c
       -1.1358949 -1.2510151 0.026844371 0.028850524
000080 e5 38 d1 bc 9a 4c a8 3d ca 97 94 3d 21 78 b3 3d
       -0.025539825 0.082177356 0.07255514 0.08763147
000090 fb e0 d5 bb 5e fd 05 bd 68 7c eb bc 80 3e bf 3d
       -0.006527064 -0.032712333 -0.028745845 0.09338093
0000a0 53 5f a1 3d 09 84 d5 3d 1a e3 b3 3d 6b e4 88 3d
       0.0787951 0.10425574 0.087835506 0.06684192
0000b0 30 4d 4b 3d 77 cc 84 bd c9 2e bc bd 04 bf 15 be
       0.04963416 -0.06484311 -0.09188611 -0.14623648
0000c0 0f 04 ba 3c 42 8e ae bc aa 6a 81 bd dd e6 dd bd
       0.022707013 -0.021308068 -0.06319173 -0.10835049
0000d0 d3 78 83 bf 50 25 b2 bf 87 1b be bf b3 4b 8d 3d
       -1.0271248 -1.3917637 -1.4852151 0.06899204
0000e0 ff e0 b5 3c ea 24 be 3d 4b d4 0e ba a4 36 15 bd
       0.022202013 0.092843845 -0.0005448504 -0.036429062
0000f0 22 49 82 3e 3c b6 8f bc 00 23 c2 bd 73 a8 b5 be
       0.2544642 -0.01754295 -0.09479332 -0.3548008
000100 23 da cc be 24 9a b6 be 5f 87 98 be 12 0a b4 be
       -0.40010175 -0.35664475 -0.2979078 -0.35163933
000110 7b 17 a7 be cb 53 b8 be 31 5a ac 3d 54 05 3d bc
       -0.32635102 -0.3600143 0.0841564 -0.011536915
000120 e5 d0 4b 3d 76 c1 9d 3d 80 26 ae bb 5d ed 61 bd
       0.049759764 0.07702915 -0.005314648 -0.055158008
000130 89 15 35 be 13 77 83 be 06 90 39 bd 3c cc 0a bd
       -0.17683996 -0.25676784 -0.045303367 -0.03388618
000140 b0 01 4a 3e 82 d9 d9 3d 5d 93 5d be 8d f3 27 bf
       0.19727206 0.106371894 -0.21638246 -0.65606004
000150 c2 1c 70 bf 69 b2 e8 3d 3c 53 eb 3d e5 1f d2 bd
       -0.9379388 0.11362154 0.11490485 -0.1025999
000160 37 c0 17 bd cc a5 81 3d 79 75 3f 3d f6 41 c7 bc
       -0.037048545 0.06330451 0.04674289 -0.024323445
000170 37 9c 47 ba 81 eb 0b 3c 27 57 3d bd 80 35 b2 be
       -0.00076145254 0.008540035 -0.046225693 -0.34806442
000180 65 ce e5 be 1f 53 ff be 47 68 ab be 3b 6b a7 be
       -0.4488403 -0.49868104 -0.33477995 -0.32698998
000190 81 c4 0d 3f 85 f6 f5 3e 57 d0 76 bf 40 fb 2f bf
       0.55377966 0.48039642 -0.9641165 -0.6874275
0001a0 7b f2 90 bf ce 2c 9d bc 92 ad c0 be f5 7c a4 be
       -1.1323999 -0.019186404 -0.37632424 -0.32126585
0001b0 ab 0e 7c be aa b9 81 be 4b be b8 3c 80 b8 98 3c
       -0.2461497 -0.25336963 0.022551676 0.018642664
0001c0 ae de 8f bc 41 e6 a0 3d 89 57 d6 bc bf 1d 34 bd
       -0.017562237 0.078564174 -0.026164787 -0.04397368
0001d0 a7 93 51 be 2f ff 88 3e 13 e0 b3 3e 28 1c 0c 3f
       -0.20466481 0.2675719 0.35131893 0.54730463
0001e0 00 9e f2 be f4 f1 90 be 99 ff 48 be b8 cc 66 be
       -0.4738617 -0.28309596 -0.19628753 -0.22539032
0001f0 ee b9 3d be d9 65 e6 3c 22 1d c5 be 12 3c 7c bd
       -0.18527958 0.028124737 -0.3849879 -0.061580725
000200 a1 30 6b be 7c c7 8f be 4c 0f e3 3d 63 ae de 3d
       -0.22967769 -0.28081882 0.11086902 0.108731054
000210 0d a6 44 3c 84 2e 2b bd e9 62 17 bd cf f1 90 be
       0.01200248 -0.041792408 -0.036959562 -0.28309485
000220 69 4f 0f 3b 10 41 86 be 2c 15 01 be d7 24 88 bf
       0.00218674 -0.26221514 -0.12605733 -1.0636243
000230 b4 dc 0f be 2c 03 af be da 07 41 be bb 87 8c be
       -0.14049035 -0.34182107 -0.18850651 -0.27447304
000240 47 6b 80 be 76 5b c2 3d 69 c3 04 3c 4b 98 00 3d
       -0.25081846 0.09490101 0.00810323 0.031395238
000250 3f 30 ff 3c 68 40 ad 3c b4 fa ec be 61 1b b6 be
       0.031150935 0.021148875 -0.4628502 -0.35567763
000260 be 7b 12 be e3 90 88 3d 74 b7 cd 3e 9f 35 0e bc
       -0.14305016 0.0666826 0.40179026 -0.008679776
000270 a3 0d a9 bd 19 9a ed bd 50 c2 8b bc a1 2d 05 3d
       -0.08254554 -0.116016574 -0.017060429 0.03251422
000280 e9 5a 17 bd 53 d3 87 3d 27 10 ac bd 32 65 92 be
       -0.036951933 0.06632104 -0.08401518 -0.2859283
000290 c2 20 97 bd f0 24 c2 3c c1 38 7e 3d 57 83 9f 3e
       -0.07379295 0.023699254 0.062065843 0.31154892
0002a0 fd 6e 18 be ba 3e 26 be 25 44 c7 bd 37 28 59 bd
       -0.14886089 -0.16234866 -0.097297944 -0.053016867
0002b0 89 f2 3b bc 9f 84 ae bd f4 aa 8c be da 8a e7 bc
       -0.011471399 -0.08521389 -0.27474177 -0.028264452
0002c0 fe 61 c5 3c e0 c8 cd bd 46 73 3f 3d c4 d9 8c be
       0.024094578 -0.100480795 0.046740793 -0.27509892
0002d0 08 be 37 bf e3 d5 52 3f ce c0 06 3f 8f dc a7 be
       -0.7177434 0.82357615 0.52637947 -0.3278546
0002e0 8d b6 9b 3f ff aa 57 3e ea 89 a5 3f 1a fb 98 3f
       1.2165085 0.21061324 1.2932713 1.195163
0002f0 c5 47 90 be 41 cf a7 3f 21 92 18 3d cf e5 0f bd
       -0.28179756 1.3110124 0.037248734 -0.035131272
000300 af 4c 28 3e 75 d9 85 3e 86 73 89 be d7 dd 53 bd
       0.16435502 0.2614247 -0.2684595 -0.051725235
000310 d3 8d a3 bc 23 77 29 3d af 37 a4 bd e7 fd a8 be
       -0.019965088 0.041373383 -0.08018433 -0.33006212
000320 ab 76 af 3c 02 96 20 3d 62 46 1c bd c9 87 97 be
       0.02141889 0.03920556 -0.03815306 -0.29595783
000330 70 58 a6 be cd 9a c6 3d 14 ca 74 3e 78 06 8d 3e
       -0.32489347 0.09697495 0.23905212 0.27543998
000340 52 dd 60 be 84 33 ea bb 80 f3 08 be c0 f4 dc 3d
       -0.21959427 -0.0071472544 -0.13374138 0.1078887
000350 9c 19 a9 3c a8 98 55 bf fc 26 45 bf a1 d5 c9 bd
       0.020642094 -0.8343606 -0.7701261 -0.098551996
000360 e5 ba 06 3d 5b 83 1d 3e f9 a4 ba be 7c 8d b0 bc
       0.03289308 0.1538214 -0.3645399 -0.02155184
000370 09 7e e1 3e f4 0f 3e 3e 0b 6d 3c 3f fd 13 0b 3f
       0.4404147 0.18560773 0.73603886 0.54327375
000380 b6 9f 38 bd c3 d5 9d 3d d7 78 04 3e ff 54 d8 bd
       -0.045074187 0.077067874 0.12936722 -0.10563087
000390 cf 7e 21 bd 39 23 99 3d ca 2f a8 bd 1a 86 fc 3b
       -0.039427575 0.07477421 -0.0821224 0.007706416
0003a0 c6 d3 38 3e 69 06 01 3e 04 53 59 be fa ae 95 3c
       0.18049535 0.12600102 -0.21223074 0.018271912
0003b0 1d a3 5f 3c 8a 5a 18 be 83 cc b5 bd 51 07 f0 be
       0.013649729 -0.14878288 -0.08876898 -0.46880582
0003c0 fe c1 50 3e aa 92 1a 3e 10 6b 8e 3e 20 ff f7 3e
       0.20386502 0.1509501 0.27816057 0.48436832
0003d0 64 8b e1 bb e0 c7 de 3e 0f d8 c2 3e 6d f1 2b bf
       -0.0068830717 0.43511868 0.38055465 -0.6716526
0003e0 04 35 a0 3e aa 2e 9e 3d 11 0c 8b 3d 58 95 15 3e
       0.31290448 0.07723744 0.06789411 0.14607751
0003f0 cd 80 a7 3e 30 23 a1 bd 11 f6 13 be 26 19 c1 3d
       0.32715455 -0.078680396 -0.14449336 0.09428625

conv.2.bias f4 [32]
000000 f8 8f e4 bd ae 72 f0 3c aa 31 64 bd 80 45 16 be
       -0.11160272 0.029351559 -0.055711426 -0.1467495
000010 8f 84 76 bc 4a e4 21 be d5 c9 cc bd 06 90 4c 3d
       -0.015046253 -0.15809742 -0.09999434 0.04994204
000020 26 4b 16 3d e2 02 03 be 88 02 d8 bd bf 0c c9 3c
       0.03669276 -0.12794068 -0.10547358 0.02454221
000030 a3 3d cd bd f5 12 14 3e da c0 9c bc 1b 7b 4b be
       -0.10021522 0.14460357 -0.019134928 -0.1987118
000040 02 aa ca 3b 83 01 1c 3e 29 ef d1 3b 17 19 21 be
       0.0061848173 0.15234952 0.006406684 -0.15732227
000050 af d5 c5 3d b8 40 89 be e6 bf f6 3d f5 c5 17 be
       0.096598975 -0.2680719 0.120483205 -0.14821608
000060 2c 72 17 be 55 bf 70 bd 8a d0 d8 3c 76 97 42 bd
       -0.14789647 -0.05877622 0.026466627 -0.047507726
000070 1f 74 55 be 24 97 cf bd 9c cc ff bd 26 91 9c bd
       -0.20845078 -0.1013625 -0.12490198 -0.07644872

exog_mlp.0.weight f4 [128, 144]
000000 fa 12 f4 3d a7 93 09 3e 49 b1 4f 3d 16 a7 80 bf
       0.11917682 0.13435231 0.05070618 -1.005099
000010 9d 62 c0 3a 8f 35 73 bf 85 bd b5 3d a3 6f 07 3c
       0.0014677827 -0.950036 0.088740386 0.008266362
000020 52 e8 c4 bd 42 6a 6e bf e5 6c 5e be 3a cc 6e bf
       -0.09614624 -0.93130887 -0.21721227 -0.93280375
000030 50 9c 5c 3d 3a 7b 31 3d f2 46 da bd 98 41 7a bf
       0.05386001 0.04333041 -0.10658063 -0.9775634
000040 8e 42 f3 be eb 69 51 bf 28 03 ba 3d 91 4b d3 3c
       -0.47511715 -0.81802243 0.09082633 0.025792869
000050 e8 bc cd 3c 6f b0 56 bf 5a ec 39 bf 4e 61 2b bf
       0.025114492 -0.83862966 -0.7262627 -0.6694535
000060 35 e1 70 bb b8 13 ce 3d 14 de 2a 3d be d8 52 bf
       -0.0036755328 0.10062355 0.041715696 -0.8236197
000070 5e d2 3f bf f9 a3 ab be cd 3d ab 3d 23 09 0c bc
       -0.7493037 -0.3352354 0.08361397 -0.0085471
000080 cb f5 87 bd b8 87 48 bf eb 1f 6f bf 41 75 20 be
       -0.06638678 -0.7833209 -0.9340808 -0.15669729
000090 55 b8 b5 3d b4 17 09 3e 2b 01 3d bd fd b2 35 bf
       0.08873049 0.13387948 -0.046143692 -0.7097624
0000a0 dc 25 80 bf cc 5b 99 3d 12 31 92 3d f8 cb 98 3d
       -1.0011554 0.07488212 0.07138266 0.07460779
0000b0 4f 5c 4c 3c 4b 8b fa be 85 51 6a bf 2a 4e a8 3e
       0.01247318 -0.48934397 -0.9153064 0.32872134
0000c0 b5 07 bd 3b d7 fd 3e bc 25 e8 ce 3c 95 45 cd be
       0.005768741 -0.0116572 0.02525718 -0.4009215
0000d0 85 7f 63 bf a2 78 ec 3e a9 1f 93 3d 57 85 cd 3a
       -0.88866454 0.46185786 0.07183773 0.0015679997
0000e0 41 da 1a bd 18 cf 97 be 6b ae 10 bf f4 73 23 3f
       -0.0378058 -0.29650187 -0.5651614 0.63848805
0000f0 25 45 5f bd 97 6c 60 bc ad 47 34 bd 40 12 5e be
       -0.0545093 -0.013697765 -0.044013668 -0.2168665
000100 7c 19 eb be b1 07 61 3f de 0f b5 3c 12 6f 98 bd
       -0.4591788 0.8790236 0.022102293 -0.0744306
000110 30 60 9a 3d 22 f4 1e be f2 64 a8 bd 54 9e 6e 3f
       0.075378776 -0.15522817 -0.08222379 0.9321034
000120 f3 b0 43 bc bd f1 03 be 74 31 0f 3c c9 40 87 be
       -0.011944043 -0.12885185 0.008739818 -0.26416615
000130 a2 44 0a 3e 5f d6 74 3f a8 86 45 bc 1f 95 fc bd
       0.13502744 0.95639604 -0.01205603 -0.1233313
000140 26 27 04 3d cd e1 fb be 7d b3 64 3e 2c 8d 68 3f
       0.032263897 -0.4919571 0.22334094 0.9084041
000150 9a ba 99 bd 46 b7 a4 bd ee 63 e2 3d 21 00 22 bf
       -0.075062945 -0.08042769 0.11054216 -0.63281447
000160 96 04 f3 3e d0 5a 4f 3f c0 29 a2 bd 61 a1 02 be
       0.47464436 0.80997944 -0.079181194 -0.12756874
000170 72 90 cb 3d 91 c4 35 bf 8a 09 13 3f 8d a7 0b 3f
       0.0993966 -0.7100306 0.5743643 0.5455254
000180 c5 3a 14 be 5b 1f 86 bd d0 98 0b 3d 73 ae 47 bf
       -0.14475544 -0.06548949 0.03408128 -0.78000563
000190 c0 06 5a 3f e2 f4 d0 3e 7d 80 c4 bd 0d 9e 05 be
       0.8516655 0.4081183 -0.0959482 -0.13048573
0001a0 90 5b ee 3d d9 b9 16 bf bd 06 71 3f b7 98 fd 3d
       0.11638558 -0.5887733 0.94150907 0.12382644
0001b0 bd 14 8d 3c f7 36 16 3c f3 2f 65 3d 47 0c e9 bd
       0.017221803 0.009168378 0.05595393 -0.11379295
0001c0 7d 44 72 3f 90 52 97 bd 3b 9b 70 3d 20 37 8b bd
       0.94635755 -0.073887944 0.05874179 -0.06797624
0001d0 21 66 6e 3d 68 e4 0f 3e e8 76 71 3f 19 ad 52 be
       0.058202866 0.14051974 0.9432206 -0.20573844
0001e0 67 91 59 3d 95 c3 89 bd 4c 27 cd 3c 6f df 20 3f
       0.053117182 -0.067267574 0.025043152 0.6284093
0001f0 ae 4a 4d 3f 2d 88 05 bf 1f ce 5e bd f0 d1 d4 3d
       0.8019208 -0.5216091 -0.05439579 0.10391605
000200 22 f6 b6 3d bc 64 6c 3f 77 37 1b 3f da 51 3b bf
       0.08933665 0.9234121 0.6063151 -0.7317177
000210 f6 27 37 3d af 93 bc 3d ba 7e d7 bb fc 9e 74 3f
       0.044715844 0.09207856 -0.0065763863 0.9555509
000220 85 e4 d7 3e c6 4d 4f bf 8c 9c bf 3d 18 b0 fe 3d
       0.42166534 -0.8097805 0.09356031 0.12435931
000230 0c 63 ab bd e5 aa 6a 3f c8 40 b4 3d 8d 83 73 bf
       -0.08368501 0.91667014 0.088014185 -0.95122606
000240 05 2a 1c bd 00 5c 40 3d 83 25 c8 bd e9 1d 6f 3c
       -0.03812601 0.046962738 -0.0977278 0.0145945335
000250 64 c6 b4 bd 26 d8 e1 3c bd de 05 3c b1 8f 4a bd
       -0.088269025 0.027568888 0.008170781 -0.04945344
000260 91 83 e8 3b 41 13 85 3d dc a2 19 3d 2d d5 a5 bd
       0.007095762 0.06497813 0.03750883 -0.08097301
000270 52 dc 0e bd 9b 2e 71 3d 64 87 98 bb e0 93 3c bb
       -0.034878083 0.058882337 -0.0046548117 -0.0028774664
000280 ad e6 fb bb 30 0d f0 bc 26 ab 13 bd 0d b6 37 bc
       -0.007687411 -0.029303163 -0.03605189 -0.011212838
000290 b2 57 39 3d 4e 2c 1c bd 98 7d 11 bd 44 62 a9 3c
       0.04524965 -0.03812819 -0.035520166 0.02067674
0002a0 e8 bb 3a bd 23 d2 64 3d c7 63 39 3d 83 54 2a bc
       -0.045589358 0.055864464 0.04526117 -0.010396126
0002b0 14 cd 89 bd 36 21 02 3d fd 8c 60 3d 8c b5 2d 3c
       -0.06728569 0.031769954 0.054821957 0.010602366
0002c0 3f fe 8f 3c 05 c1 5f bd 3e a2 c1 bd 37 8b a7 bc
       0.017577289 -0.054627437 -0.09454773 -0.020452125
0002d0 4d a8 61 bc 28 8b 69 3d e0 8b 60 39 08 06 d3 bc
       -0.013773036 0.057017475 0.00021414412 -0.025759712
0002e0 aa 64 f1 bc dc d2 69 bb 95 db 7c bd 7f a4 54 bd
       -0.029466946 -0.003567866 -0.061732847 -0.05191469
0002f0 35 d1 c8 ba 83 8b 36 3d 4d bb 86 3d 98 7e 39 3d
       -0.0015321138 0.044566642 0.065786935 0.045286745
000300 7e 50 99 bd 3c ce 74 3d 44 7d 82 3d 83 4f 21 bd
       -0.07486056 0.059766993 0.06371549 -0.03938247
000310 ed f7 3a 3b 9d 5a b6 3d 02 cf 3f bd 6d 1e b6 3c
       0.0028529123 0.08904002 -0.046828277 0.022231305
000320 12 41 3b bb 87 36 ab 3c 4d 9c 0a 3d f1 50 c5 3d
       -0.002857272 0.020900024 0.033840466 0.09634579
000330 49 05 59 3d 32 ef 97 bd 8d 12 09 3d f9 df 0e bd
       0.052983556 -0.0741867 0.033464957 -0.034881566
000340 0e df 0f bd e1 5d e0 3c 76 71 ec bc b3 b7 92 bd
       -0.03512483 0.027388515 -0.028862696 -0.07163944
000350 a6 f8 b8 bd 51 f4 87 bd fe 51 9f 3c 50 94 81 3d
       -0.09031801 -0.066383965 0.019448277 0.063271165
000360 47 15 02 3d 80 c1 9f 3b dd 92 7e 3d 22 26 b9 bd
       0.031758573 0.004875362 0.06215178 -0.090404764
000370 ff 23 24 bd 9f db 35 3d de ee bd bd 96 9b 7a 3d
       -0.04007339 0.0443989 -0.09274076 0.061183535
000380 a8 a4 b0 bb 94 55 50 bd 1e 47 b3 3d 78 6a 33 3d
       -0.0053907223 -0.050862864 0.08753799 0.04380271
000390 7f 3f 5d 3d 91 ac 39 3d bd 23 00 bd f1 86 56 3d
       0.054015633 0.045330588 -0.031284083 0.052374784
0003a0 8a be c9 3c 62 76 04 3c 64 25 68 3c 65 57 a9 bd
       0.024626989 0.008084865 0.014169071 -0.08268622
0003b0 7f 63 88 bd fd 4f 59 3d 48 15 27 bd 9b a0 24 3d
       -0.066596024 0.0530548 -0.04079178 0.040192228
0003c0 76 00 19 3d 4d 24 ae bd c7 f3 d8 bc 54 49 bc bc
       0.037353955 -0.085030176 -0.02648343 -0.022984184
0003d0 6c 0d 9a 3d e4 01 00 bd fb ed 83 3d fd 8e b2 bd
       0.07522091 -0.031251803 0.064418755 -0.08718679
0003e0 09 4a 91 3c 3d 67 cd 3c 5f 58 8f bc 37 bd 1c bd
       0.017735498 0.025073642 -0.017498193 -0.038266387
0003f0 7c c4 7c bd 64 64 a4 3b 55 94 2d 3c 73 5f 4b bd
       -0.06171082 0.0050168503 0.010594447 -0.049651574

exog_mlp.0.bias f4 [128]
000000 19 b7 ea 3b 64 f7 85 3d 8c a4 80 3d 08 30 b9 bd
       0.00716294 0.06541327 0.06281385 -0.09042364
000010 92 ce 9e 3d 25 fa 67 3c d2 2f 60 bd ef ec a6 3c
       0.07754244 0.01415876 -0.054733105 0.02037665
000020 18 c9 97 bd ad 44 30 bd 09 4b 98 3d 9e 3f 88 bd
       -0.074114025 -0.043034244 0.07436187 -0.06652759
000030 8b bd 21 bd da db 37 be a0 e1 ee 3c 69 cc 78 3d
       -0.039487403 -0.1795496 0.02916032 0.060741816
000040 10 8a 68 bd 5c 53 9d bd 03 ab 05 bd 17 31 59 b8
       -0.05677229 -0.07681915 -0.032633793 -5.178255e-05
000050 ed 0c 2d bb 52 47 13 be 6f c9 92 bd af 05 0c bb
       -0.002640541 -0.14382675 -0.07167327 -0.0021365692
000060 ce a6 48 3d e3 52 f3 3c a1 36 e3 bd 76 a8 6c 3d
       0.048987202 0.02970261 -0.11094404 0.057777844
000070 56 65 bd 3d 8f e5 bd 3c 33 9d 7b 3d d9 16 c1 3d
       0.09247844 0.023180751 0.061429214 0.09428186
000080 5f b3 bc bb 0b 55 23 bc 89 52 45 3c 17 08 4b 3d
       -0.0057586874 -0.009969006 0.012043604 0.049568262
000090 a5 0a aa 3c 2b c2 bc bb 50 fc de bc 3b d1 2e bd
       0.020757029 -0.0057604513 -0.027219921 -0.042680006
0000a0 e5 d4 a5 bd a6 67 9f bd 0a 7a 6a 3e 1b 62 61 3d
       -0.08097247 -0.07783441 0.22898117 0.0550252
0000b0 60 4d 83 bd 6b 7b 14 bd ed 3b fd 3c 30 cc 4a 3d
       -0.064112425 -0.036250513 0.030912364 0.049511135
0000c0 ba f8 b2 bd c5 fb 48 bc cb 7e 5e bc 8b a0 56 3c
       -0.08738847 -0.012267058 -0.0135800345 0.0130998
0000d0 5f 12 6a bd bb 78 9e bc f4 d7 5a bd 3f 8f 31 bd
       -0.057146426 -0.019344678 -0.053428605 -0.0433495
0000e0 98 71 b9 bd 84 0c 91 bc d4 20 26 be 9f 86 2b be
       -0.090548694 -0.017706163 -0.1622346 -0.16750573
0000f0 e6 64 7c 3c ac d7 dd 3c b9 1f f2 bd ba d9 a9 bd
       0.015404915 0.02708038 -0.11822457 -0.08293481
000100 00 96 aa 3c 98 73 9e bd c5 d5 83 be 36 be 2d bc
       0.020823479 -0.077368915 -0.2574903 -0.010604432
000110 28 26 fb bd f3 ae 37 bd c4 dc e5 3d 0e 51 4c bd
       -0.12263137 -0.04484458 0.11223748 -0.049881987
000120 b8 95 40 3d 87 84 7f 3d ce d3 32 3e f2 61 1b bd
       0.047017783 0.062382247 0.1746361 -0.037935205
000130 e4 ae 25 be 2e 1e 7a 3d 9e 17 ee bc 36 81 10 be
       -0.16179997 0.061063938 -0.029063996 -0.1411179
000140 7f 09 0f bd c0 61 dc 3d 0a 6c eb bd 6f 6b 0c be
       -0.034921166 0.10760832 -0.11495216 -0.13712858
000150 c0 9b 87 3c ce a8 3c 3c 62 23 23 3d fa 41 58 3d
       0.01655376 0.011514856 0.039828666 0.052797295
000160 36 93 89 3d c8 ad 3e bd 86 04 72 bd db de 7e 3c
       0.067175314 -0.04655245 -0.059086345 0.015556063
000170 85 72 10 bd ae e8 44 bc 80 17 74 bb 16 51 fc 3b
       -0.035265464 -0.012018366 -0.0037245452 0.007700096
000180 91 4f c0 bd 76 e4 65 3c 20 83 7b bd 58 77 11 bd
       -0.09390176 0.01403152 -0.061404347 -0.035514206
000190 e7 df 05 3e a4 10 2c bc 31 3e 82 bd 3c 39 41 bc
       0.13073693 -0.010502014 -0.06359518 -0.011793431
0001a0 7e 7b 27 bd 56 cc 46 be 37 e4 a7 bd fc 7c 9c bd
       -0.040889256 -0.19413885 -0.081978254 -0.076410264
0001b0 73 8f 18 3d 2f 0a b8 bd 1b 43 9d bd 7b 13 cb bc
       0.03724618 -0.08986317 -0.07678815 -0.024789562
0001c0 86 d0 ec 3d e4 a7 cc 3c d7 83 01 bd b2 e3 07 bd
       0.1156321 0.0249824 -0.031619873 -0.03317613
0001d0 b8 32 ea 3d 2e 06 6a bd f0 81 80 3a 34 1c 2b bd
       0.11435455 -0.0571348 0.0009804349 -0.041774943
0001e0 36 dd 64 3c 0f c8 60 3e 60 8f 2d 3d c6 fd f3 bd
       0.013968756 0.21951316 0.04237306 -0.11913638
0001f0 ff ac 20 bd 47 38 6b be a7 59 0f be a2 27 ad bd
       -0.039227482 -0.22970687 -0.13999043 -0.08454825

exog_mlp.2.weight f4 [64, 128]
000000 22 55 25 3d 04 0c 6f bd cf a7 38 3d 36 8e b8 bc
       0.040364392 -0.05836107 0.04508191 -0.022528749
000010 4f c8 98 be f7 23 ee bc b9 7d e0 3c 98 eb f6 bc
       -0.29840323 -0.029069884 0.0274037 -0.030141637
000020 16 33 93 3c 1a 86 c4 bd c0 c6 e0 bc 15 cb ed 3c
       0.017968696 -0.0959589 -0.027438521 0.029027501
000030 f8 91 65 3d 20 dc 20 3d c2 d0 ac 3d 0d ee f1 3c
       0.05604741 0.039272428 0.08438255 0.029532457
000040 f8 21 3c 3d 47 63 8b bc ad ba 86 3d 73 b5 70 bd
       0.045930833 -0.017015113 0.06578574 -0.058766793
000050 1b 33 12 bd a3 ed 0c 3e 7b ae 08 bd 24 28 95 3c
       -0.03569327 0.13762526 -0.033369523 0.018207617
000060 64 21 b9 bd b9 c4 8c bd 04 74 3b 3e 76 b0 93 3d
       -0.09039572 -0.06873459 0.18305975 0.07211392
000070 f7 22 ff bc bc 1f 2b be d0 7e 9c 3c e5 63 64 bd
       -0.031144602 -0.16711324 0.019103438 -0.05575933
000080 93 2d b1 3d b8 88 a7 bb e6 e4 69 bc 0a 2a 9c bd
       0.08651271 -0.0051127337 -0.014275765 -0.07625206
000090 68 f5 d4 bc 5a e6 a5 bd 1b 13 8b bd a6 0f 12 3c
       -0.025995925 -0.08100577 -0.067907535 0.008914864
0000a0 29 7d 8c bd f5 31 d1 39 38 b6 0e bf cf da 15 bd
       -0.0685981 0.00039900807 -0.55746794 -0.036585625
0000b0 d6 fd 32 3c 9b f5 ce bc fd 84 74 bd 88 2a 2f 3d
       0.010924777 -0.025263598 -0.05969714 0.04276517
0000c0 6e 48 92 3c 8c 5b d9 bd 26 6e 3a 3d d2 9b c4 3d
       0.017856803 -0.10613164 0.045515202 0.09600033
0000d0 0e 45 73 3d 63 0d a3 3d 07 ea 85 bd d6 56 33 3d
       0.059392028 0.07961538 -0.06538778 0.043783985
0000e0 54 b8 8f bc b2 b6 5f 3d e4 01 0d 3e a0 d4 83 3d
       -0.01754395 0.05461759 0.13770252 0.064370394
0000f0 d0 99 15 bd 60 b9 30 3c 6b 75 eb bb 79 87 50 3d
       -0.03652364 0.010786384 -0.007185628 0.050910447
000100 81 67 fe bc cb 71 0d 3e 3c 7d 79 3e a7 ed 39 3d
       -0.031055214 0.1381294 0.2436418 0.04539266
000110 6b 5c ae 3c 20 2b 14 bd 3a 71 11 3d 5c 9f 35 bc
       0.021284303 -0.03617394 0.035508372 -0.0110853575
000120 26 e5 f7 bc 71 e5 a7 3c de 2f 85 bd 3a d5 7d 3c
       -0.030260634 0.020495148 -0.065032706 0.015492732
000130 bf 34 11 3e 53 7e 84 bd 43 1e 87 3d 12 96 42 3e
       0.14180277 -0.06469407 0.06597569 0.1900256
000140 11 51 01 3e e1 af 3e bd 4c 16 8f 3d 98 88 fe 3d
       0.1262858 -0.04655445 0.06986675 0.12428397
000150 06 ab 23 bd ca 06 9a 3d 04 e2 43 bd 81 5e 54 3d
       -0.039958023 0.07520826 -0.047822967 0.05184794
000160 33 96 7f 3d 52 92 d9 3d 7f b1 ae 3d 4b 7f 08 3d
       0.0623991 0.106236115 0.085299484 0.03332452
000170 41 9e 08 bd 65 6f b8 bd 46 3d 6f bd f3 a2 ff ba
       -0.033354048 -0.09005622 -0.058408044 -0.0019503519
000180 6d 45 8b 3e 21 a1 31 bc 53 b5 2e 3c b6 9c a5 bd
       0.27201405 -0.010841639 0.010663348 -0.08086531
000190 b4 a5 9b bd 13 b4 43 bb 6d 34 50 bc e0 f8 56 3d
       -0.07599965 -0.0029861971 -0.012707812 0.05248344
0001a0 88 66 e2 bc 13 a7 e5 3c bf f3 2d 3c 51 f2 f3 3c
       -0.027636781 0.028033769 0.010617196 0.029778631
0001b0 a3 db a4 bd b5 d8 56 3d d0 e8 f8 3c 86 1b aa 3c
       -0.08049705 0.05245276 0.030384451 0.020765077
0001c0 02 a9 da 3c dc 49 12 3d 2f ab c0 3d 14 1d 81 3c
       0.026691917 0.03571497 0.09407651 0.015760936
0001d0 c7 6f ca bc 34 bb b5 3c ff 4c ba bd d1 8f d0 bd
       -0.024711503 0.022183992 -0.09096717 -0.10183681
0001e0 b5 89 56 3d 34 3d 49 bd 13 63 fc 3d 5d ee a4 3c
       0.05237742 -0.049130633 0.123235844 0.020133192
0001f0 0e f3 93 3d 7b 09 1d bd 8f 81 3a 3e 64 95 b5 3c
       0.072240934 -0.03833912 0.18213485 0.022165962
000200 b2 79 44 bd 72 ce 35 3d 1f 97 5a bd d8 1d f4 3d
       -0.04796762 0.044386335 -0.053366777 0.11919755
000210 50 9f 9e 3d 04 02 e8 bc f5 2b 68 bd a1 a9 24 bd
       0.0774523 -0.028321274 -0.056682546 -0.040200833
000220 f4 fc 5c 3c 00 5e ac 3c d5 08 b7 3d dd e9 04 3d
       0.013488043 0.021040916 0.089372315 0.032449592
000230 3b d1 81 3d dd f8 24 3d 5c 75 b5 bc f6 c3 88 3d
       0.06338736 0.040276397 -0.022150688 0.066780016
000240 8c 80 e9 3a 98 30 8a 3c 60 2a 94 bb 5c 34 a2 3d
       0.0017814799 0.016868874 -0.004521653 0.07920143
000250 63 07 59 bb 59 6b b4 3d 34 44 39 3d dd 51 17 bc
       -0.0033115975 0.088095374 0.04523106 -0.009235826
000260 5f 92 f8 bb 1e 41 53 bd 6f d9 90 bd 91 df ed 3c
       -0.007585808 -0.051575772 -0.07072722 0.029037269
000270 56 20 65 bd c0 30 56 bd 3b 30 12 3d 6e 57 01 3e
       -0.05593904 -0.052292585 0.035690527 0.12631008
000280 77 7c b6 3d c3 e6 15 3d d9 bb 4b bd a4 04 14 3c
       0.089104585 0.036597025 -0.049739692 0.00903431
000290 ed d4 3c bc 20 ad 4d be 39 4d 7f bd 7f 1b 87 3d
       -0.011525375 -0.20085573 -0.062329505 0.06597041
0002a0 22 ef a6 3d b8 cb 31 bd eb 72 4c 3d 84 d8 19 3d
       0.0815108 -0.043407172 0.04991428 0.03756
0002b0 46 30 1c 3d ac 59 d5 bb 92 85 14 3e cc 37 b0 bc
       0.038131975 -0.006510934 0.14504078 -0.021510981
0002c0 8f d1 aa 3c e6 9d ab 3d cb 86 5a 3c c8 73 1b bd
       0.020851878 0.08379726 0.013337801 -0.037952214
0002d0 43 83 88 bd 6c 49 84 3d 25 ac 15 be 7a 4a 95 bc
       -0.06665661 0.064593166 -0.14616449 -0.01822399
0002e0 27 e6 d7 3d 56 12 d4 bd 99 9c ec bc 64 24 17 be
       0.10541945 -0.1035506 -0.028883265 -0.14759976
0002f0 c3 97 36 bc 5f 2e 28 3b 9b 04 ef 3d 10 03 42 3d
       -0.011144581 0.0025662405 0.116708 0.047366202
000300 38 0d c3 3d 95 3f e3 bd 27 a1 9e 3d fb 9d 0d 3d
       0.09524006 -0.11096112 0.07745581 0.03457449
000310 7c 84 d0 bd 49 76 8f bd 32 8e ad 3d 1e a4 86 3d
       -0.101815194 -0.07004983 0.08474387 0.065742716
000320 e2 a4 94 ba 78 88 5f be 0f ab 24 3e af 1a ed bd
       -0.0011340643 -0.21829402 0.16080879 -0.11577355
000330 de d3 95 3c 60 5f d0 bd 3f 48 44 3c 3b 62 a9 be
       0.018289503 -0.10174441 0.011980115 -0.33082756
000340 4a 83 92 3b 09 cd 3d 3d bc 2d ec 3d 08 ca f4 3d
       0.0044712173 0.046338115 0.11532161 0.11952597
000350 dc 79 1a 3d ba 70 dc 3d 60 d5 05 ba 5b 49 5a 3c
       0.03771387 0.107636884 -0.0005105343 0.013323153
000360 c8 55 90 3d c3 91 2c bd d2 08 20 be a5 a4 19 bd
       0.070476115 -0.042131197 -0.15628365 -0.037510533
000370 c5 bb 5e bd b5 8f 1a be 4e bf 40 3c 19 fd d2 3b
       -0.05437829 -0.15093882 0.011764361 0.006438863
000380 c2 e8 49 be 25 fd 82 bd 1e ea 96 3d 49 93 48 3c
       -0.19717696 -0.0639594 0.07368873 0.012242147
000390 f1 c1 ab 3d 8e 38 e5 3d 7d 5b 97 bd 0f 4c 55 3d
       0.08386601 0.111924276 -0.07390497 0.05207449
0003a0 78 f4 a5 bd fb 97 65 bd a7 24 10 3d 13 65 b9 3d
       -0.08103269 -0.056053143 0.035191204 0.090524815
0003b0 49 94 e8 3d ce a4 c8 3c 50 b7 2d bd d0 39 b0 3d
       0.11356408 0.024492647 -0.04241115 0.08604777
0003c0 8a 8b 74 bd 16 dd ac 3d c1 e4 a2 bd 40 1e 6f bd
       -0.059703387 0.08440606 -0.079537876 -0.058378458
0003d0 de 42 6c 3d aa 0b fe 3d 21 40 c9 3b f9 6e 06 3e
       0.057680957 0.124045685 0.006141678 0.1312827
0003e0 dd a0 8f bb c5 c4 00 bd 58 e0 ba bd 61 ce 20 3e
       -0.00438319 -0.031437654 -0.091248214 0.15703727
0003f0 67 67 84 bd e3 cc e7 3d 7e 15 e7 3c 2d f3 d5 bc
       -0.06465035 0.11318376 0.02820849 -0.026116932

exog_mlp.2.bias f4 [64]
000000 4f 7c 02 be 14 30 85 3c 21 54 cf bd 29 f9 f1 3d
       -0.12742732 0.016258277 -0.10123468 0.11815102
000010 93 21 9e bd b8 1c c4 bd e6 86 21 be a0 49 1d 3c
       -0.077212475 -0.0957579 -0.15774116 0.009600073
000020 3d cb 7c 3d 78 f0 08 bd 93 50 55 3d b1 2c 9d bd
       0.06171726 -0.033432454 0.052078795 -0.0767454
000030 45 fe a5 3c 04 2b 2b 3e 04 49 6c be 83 93 a8 3e
       0.020262847 0.16715628 -0.23074728 0.32925043
000040 e3 1f bc 3c fd 08 e2 3c 49 f4 87 bd 6a 40 d6 bd
       0.022964424 0.027592177 -0.066383906 -0.10461505
000050 a1 0b e6 bc 91 b6 1b bc 59 21 5d bb 24 25 19 3c
       -0.028081717 -0.009503976 -0.00337418 0.009347234
000060 22 9a 4c 3d a4 d2 2a ba ab 42 e1 bd d9 04 cc bd
       0.04995168 -0.0006516373 -0.10999044 -0.09961862
000070 12 80 31 3d bc 22 8c bd 44 18 40 bd 50 b5 2e bc
       0.043335028 -0.068425626 -0.04689814 -0.010663345
000080 35 d2 2e 3e 0d 47 6e bd ba 39 50 bd 66 24 8d 3d
       0.17072375 -0.058173228 -0.050836302 0.06891708
000090 99 5b 31 3e a4 db e2 bb 4e e1 a6 bd fc 7f e1 3c
       0.17320098 -0.006923156 -0.08148442 0.027526848
0000a0 a2 ab 15 bd b9 9e 34 bc 75 ee a0 bd d5 fd 3a bd
       -0.036540635 -0.011024171 -0.07857982 -0.04565223
0000b0 f9 01 a8 3b 52 71 6b bc f9 87 7a bd e9 8f 8f 3d
       0.0051271883 -0.014370279 -0.06116483 0.070098706
0000c0 a9 5c 72 3d 2d ca 80 3d fa 5d 81 bd 45 59 86 ba
       0.0591704 0.06288562 -0.06316753 -0.0010249993
0000d0 34 3f b6 bd 38 76 97 3d 60 58 64 3c d9 f5 f6 3c
       -0.08898774 0.07395595 0.013937086 0.030146526
0000e0 ef 46 d2 3d 19 c1 64 bd e5 83 70 3e e0 f8 44 bc
       0.10267436 -0.055848215 0.23487814 -0.012022227
0000f0 31 b8 35 bd 5f da 2f bd 98 12 cb bd 02 98 1a 3e
       -0.04436511 -0.042932864 -0.09915656 0.15097049

head.0.weight f4 [128, 96]
000000 a5 8e 2e 3d a5 f7 51 3e 13 7c 88 3e e6 14 c6 3d
       0.042616505 0.20504625 0.2665716 0.09671955
000010 fd 14 67 be 16 1e c6 3c 99 58 83 3e 5e e2 45 3e
       -0.225666 0.024184268 0.25653532 0.19324633
000020 78 d7 9f 3d 18 c3 34 3e 39 a9 8e bb aa e3 9b bc
       0.07804769 0.17652547 -0.004353669 -0.019029457
000030 76 90 2a 3c 2b 08 20 be 2f dd 94 3e 07 c9 47 3d
       0.010410419 -0.15628116 0.29075 0.0487757
000040 63 6a a9 bd 96 e5 4b bd 4b de 60 bd 25 1e 8f 3c
       -0.08272245 -0.049779497 -0.054899495 0.017470429
000050 9d 9c f3 bc 59 3c b0 bd d3 e8 3b be 6d 49 8b 3c
       -0.029737765 -0.086052604 -0.18350534 0.017002786
000060 52 66 45 3d ac 37 a2 3d 6c 2d b6 3d b3 9a a9 3d
       0.048193283 0.07920775 0.08895382 0.0828146
000070 71 8e 18 bd 98 78 66 3d 89 e4 d7 3d b3 ff 54 3b
       -0.037245218 0.05626735 0.105416365 0.0032501041
000080 4c df fa bc af 64 74 3d 28 99 a1 bc 5a 81 ea 3d
       -0.030624054 0.05966633 -0.01972635 0.11450453
000090 8c 74 ed 3c 79 74 9a bd b2 55 9f bd 0e 27 96 bd
       0.028986238 -0.07541747 -0.07780017 -0.07331668
0000a0 05 b4 60 bd be e4 9e b7 a4 d5 15 3c 07 68 9f 3d
       -0.05485918 -1.8941584e-05 0.009145174 0.077835135
0000b0 cc 04 aa bc 3d 17 16 3c b0 3a 81 bd de 40 fc bd
       -0.02075424 0.009160814 -0.06310022 -0.1231706
0000c0 b7 81 1e bc 3d 8f c5 3d 0e 25 cd bd 72 18 12 3e
       -0.009674481 0.09646461 -0.10016833 0.14267138
0000d0 85 ea 43 3d 2e 47 6f 3a 4a f1 97 bc f1 5f e6 bc
       0.047831077 0.0009127733 -0.018547673 -0.02812192
0000e0 e8 0f bb 3d ef 2d d1 bd 71 b1 a0 3a 48 a5 d6 b9
       0.09133893 -0.10213839 0.0012259913 -0.00040940405
0000f0 ad 59 6e bd 34 cd 15 bd 0f 26 84 3d 87 6f ab 3c
       -0.05819099 -0.03657265 0.064525716 0.020927204
000100 12 c5 81 bb 29 ac 45 3d 1e b7 58 39 27 29 51 3c
       -0.00396026 0.048259888 0.00020667582 0.012766159
000110 73 6e 0c bc e7 01 c6 bd 78 f3 df bc 91 87 a1 bd
       -0.008571255 -0.096683316 -0.027337775 -0.07887185
000120 0a 31 fe 3d f5 e1 95 3d a4 d9 ef bc 17 e9 cd 3d
       0.12411697 0.073184885 -0.029278584 0.10054224
000130 fb b3 a4 bd 6d 4c 96 bd d7 9c 0e 3e 6a 73 d8 bd
       -0.08042141 -0.07338796 0.13927017 -0.105688885
000140 5e 9e 07 bd 72 e8 ef bc b2 62 c2 3d 7e 79 a1 3d
       -0.033110015 -0.029285643 0.09491481 0.07884501
000150 71 54 15 3d 8f c7 d5 3d f9 df 2a bc e2 b7 a8 bd
       0.036457483 0.104384534 -0.010429376 -0.08238198
000160 90 72 41 3d 23 cc 8a bc ae 9d 84 bd d3 61 b5 39
       0.047228396 -0.016943043 -0.064753875 0.00034595895
000170 e3 d7 92 3c 21 94 7e bc 69 d3 4b bd 5c 65 8d bc
       0.017925208 -0.015538246 -0.049762163 -0.017260246
000180 a9 0c df 3b 2d ef c1 bc 88 17 36 3e 3c 49 83 3d
       0.006806929 -0.023673618 0.17782414 0.06410453
000190 73 db 49 3e 39 8a e3 3d 0a 76 af bc a6 28 94 bd
       0.1971262 0.11110348 -0.02141859 -0.072343156
0001a0 4a 36 41 bd ee 59 e6 bc 7c 4b 05 3d 3f bd 84 3e
       -0.047170915 -0.028119054 0.03254269 0.25925633
0001b0 f1 5d 1b 3d e7 c2 04 3f e7 e4 0a 3e 1f db 1a 3d
       0.037931386 0.518599 0.13563882 0.037806626
0001c0 56 a3 f9 bc 5b 9b b0 be 5b 19 c7 bd ac 00 b0 bd
       -0.030473392 -0.34493527 -0.09721633 -0.08593878
0001d0 30 43 9d 3d f4 4c 62 3e 63 e4 8b 3e 2f b2 9d 3d
       0.076788306 0.22099668 0.27322683 0.077000014
0001e0 00 9c 84 3d e3 d4 39 bd 63 04 4a bd 44 ff ab 3d
       0.06475067 -0.04536904 -0.04932059 0.083982974
0001f0 f0 af f1 3d 1b 8a b4 3d 39 43 89 3d 70 9f 11 bd
       0.118011355 0.08815404 0.06702275 -0.035552442
000200 9e 12 8b bc 16 d0 a7 bd ee b9 ea 3d 71 7e 18 bd
       -0.01697665 -0.08193986 0.114612445 -0.03722996
000210 53 eb 36 be 66 68 0e bd 8f 83 96 bd 18 27 61 bc
       -0.17863207 -0.03476753 -0.073493116 -0.013742231
000220 19 2e 3c 3d d4 c2 55 be 90 37 84 bd 27 0e 06 bd
       0.0459424 -0.20875102 -0.0645591 -0.03272834
000230 eb 4b 6a 3d 7c fa 53 be 9b d1 99 bd 31 74 ad 3d
       0.057201307 -0.20701021 -0.07510682 0.084694274
000240 ef e8 26 3e bf d0 0e bd 2b a6 9e bd 90 5c 98 3d
       0.16299795 -0.034867045 -0.07746538 0.0743953
000250 4e 8f a7 3c 68 7a 57 3d f1 50 21 3c f0 03 de 3d
       0.020454075 0.05260697 0.009845958 0.10840595
000260 f9 32 20 bd cc 26 2a 3b 33 ed 01 be eb d9 4f 3d
       -0.03911111 0.0025963066 -0.1268814 0.050744932
000270 94 25 83 bc 6c 67 2f bd 75 98 73 3d 56 ce 60 3d
       -0.01600913 -0.04282324 0.059471566 0.054884277
000280 79 86 09 3e 24 54 82 3d 31 ad d7 bd 6b 07 1d 3d
       0.13430203 0.06363705 -0.105310805 0.038337152
000290 6f a6 d1 3d 7d 0e f5 bd d1 36 f8 3d 10 3a 84 bc
       0.10236823 -0.11965654 0.121198304 -0.016140968
0002a0 40 e6 fa 3d 2d eb 4b bd d6 e5 88 3b 5b c3 df 3d
       0.12250948 -0.049784828 0.004177789 0.10925933
0002b0 ed 15 9c 3d be 7a 4b 3c 1b ad 65 3d 81 7e 50 be
       0.076213695 0.012419401 0.05607329 -0.20360757
0002c0 ec 3e 63 3d 4f 67 9b bd 43 3e 2d bd 91 80 2b 3e
       0.05547993 -0.07588064 -0.042295706 0.16748263
0002d0 10 fb 8a 3d dc 1f 77 3d d5 ed 00 bd 59 9c db bd
       0.067861676 0.060333118 -0.031476814 -0.1072318
0002e0 ae d8 e8 3d 8e 84 43 bd 8c 0c 2c 3c 92 82 28 3e
       0.11369453 -0.047733836 0.010501038 0.16456059
0002f0 97 e4 ba bd 45 ac be 3d 5e 63 55 be bc 2b e9 3c
       -0.09125631 0.093102016 -0.20838687 0.028463237
000300 2d b3 4e bd 9f d1 6e bd 0d b9 ef bc 29 51 ac 3c
       -0.050463844 -0.05830538 -0.029263044 0.021034794
000310 45 a5 f3 bc 70 1f 8f 3d 57 a2 31 bd 11 95 2c bd
       -0.029741893 0.06988418 -0.04336771 -0.04213435
000320 43 80 96 bd 56 63 56 bd ca 98 87 3d 41 93 c6 3d
       -0.07348683 -0.052340828 0.06620939 0.09696055
000330 79 7b b0 bd 72 92 2b 3d ad 50 83 3d 1e e1 73 bd
       -0.086173005 0.041887708 0.06411872 -0.05954086
000340 b7 ed c3 bd 94 2c 7c 3c 60 a7 be bd 34 e5 63 3c
       -0.09566825 0.015391488 -0.09309268 0.013909627
000350 cb d2 a7 3d 0f b3 db 3b f4 c1 91 3d d5 10 76 3d
       0.081945024 0.006704695 0.07117072 0.060074646
000360 dc e0 4c 3d cc 91 26 bd e6 b9 45 bd 0c 7e cc bd
       0.05001913 -0.040666386 -0.04827299 -0.09984979
000370 ec b4 87 bd f8 93 4b 3d 51 61 1a 3d d3 53 83 bd
       -0.06626305 0.04970166 0.037690464 -0.064124726
000380 bb ed 1b bd b9 28 cf bc 36 92 52 3d 9d 52 b4 bd
       -0.038068514 -0.025287973 0.05140897 -0.0880482
000390 d2 9b 86 bb c8 97 c6 3c 36 f1 2e bd be d2 45 bc
       -0.0041079307 0.024242297 -0.042710505 -0.012074171
0003a0 55 ff 70 3d a7 05 d6 bd 24 78 b8 bc 7e 0f b6 bd
       0.058837254 -0.10450297 -0.022518225 -0.08889674
0003b0 42 f2 28 3d 51 4c 9f bd 19 27 51 3d cc 60 7c bc
       0.04124666 -0.07778228 0.051062677 -0.015403938
0003c0 a7 32 c2 bb 4a 95 9f 3d fd d8 92 bd 87 a9 6a 3d
       -0.0059264484 0.077921465 -0.071702935 0.05729058
0003d0 69 63 cf 3d 3e 7b 05 be b1 28 3a 3c bd 74 a9 bd
       0.10126383 -0.13035294 0.011362241 -0.08274219
0003e0 dd cc 5e 3d dd 3b d3 bd 77 73 f6 bc 4a 13 42 bd
       0.05439459 -0.103141524 -0.030084355 -0.047381677
0003f0 45 b7 ac bb af bb 00 bc 89 20 85 bd 4d 11 9c bd
       -0.005270871 -0.007857247 -0.06500346 -0.07620487

head.0.bias f4 [128]
000000 c6 78 a6 3c c9 e0 8c bc a8 53 87 3d c1 f3 55 3c
       0.020321261 -0.01719703 0.06607753 0.013058604
000010 98 b9 d9 bd 44 52 e2 3d 1b 0f 5e bd 2c e6 0f 3d
       -0.10631102 0.11050847 -0.054213624 0.03513162
000020 70 b7 30 bc c2 80 fa bd 2a 39 e7 bd a6 8d a0 bd
       -0.010785922 -0.1223159 -0.112902 -0.07839517
000030 5a a7 8d 3d a2 2e a4 3d 13 63 2c 3b bd 8e 38 bb
       0.069166854 0.08016707 0.002630417 -0.002816125
000040 5a 65 11 3d 34 2f 2e 3d 0a 6a 73 3d 9f 76 9d 3d
       0.035497047 0.042525485 0.0594273 0.07688641
000050 66 68 91 3d df 48 0c bc 6d 4a 19 3d 0b dc ba 3d
       0.070999905 -0.008562296 0.037424494 0.09124001
000060 39 aa 7c 3d d8 74 97 bc d4 5e eb bd f2 95 0f 3d
       0.061685774 -0.018488333 -0.114926964 0.03505511
000070 2e c3 b1 3b c6 ad 5e 3c 0a 6c c2 bd 13 a6 96 bb
       0.0054248786 0.0135912355 -0.09493263 -0.0045974343
000080 7e 0e 81 bd 4c f9 71 bd db 3b 4f 3d a5 f0 86 bd
       -0.06301592 -0.05907564 0.050594192 -0.06588868
000090 ee 48 9a bd cd ff f2 3d 37 7b fd bb 5d d4 b0 3d
       -0.075334415 0.118651964 -0.0077356356 0.08634255
0000a0 b1 3b 23 be a8 cb a8 bd 0c 98 25 3d 00 b6 b0 bd
       -0.15940739 -0.08241969 0.040428206 -0.08628464
0000b0 ea e3 93 bd 00 95 8c 3d ea 25 71 bd 1a d0 9e bd
       -0.072212055 0.06864357 -0.05887405 -0.07754536
0000c0 ce 5d 9f bc cc 3d 61 3c 20 3a 29 bd 4f d0 93 3b
       -0.01945391 0.013747644 -0.041315198 0.0045109163
0000d0 c5 31 b6 bc 4f a8 da bc 46 ca 0e be c7 f4 88 bc
       -0.022240529 -0.026691584 -0.13944349 -0.016718281
0000e0 1d 23 73 bd 10 46 72 3c 7e 7b 4f bc e3 38 ad bb
       -0.05935966 0.014787212 -0.01266372 -0.0052863224
0000f0 94 54 0a bd 73 77 35 bc d1 a1 f0 bd 72 bd 84 3d
       -0.033772066 -0.011075842 -0.11749614 0.06481446
000100 20 a2 b6 3d 4c b4 9e 3d 15 bc 33 bc 51 89 83 3e
       0.08917642 0.07749233 -0.010970135 0.25690702
000110 2b 2d 74 bd 58 52 8e bd 6f 06 15 bd 30 30 92 3c
       -0.059613388 -0.069492996 -0.03638309 0.017845243
000120 34 a2 6f bd 7f 2f 6b 3d b9 02 24 bc 1e e8 c5 bc
       -0.0585043 0.057418343 -0.010010415 -0.024158534
000130 af e0 b9 bc 3d ab 8f bd c4 71 06 3e ff 4a 15 3d
       -0.022690145 -0.07015083 0.13129336 0.036448475
000140 53 0a 8b bd 7b 34 f3 3b dd 15 63 3d 82 13 12 3d
       -0.067890786 0.0074220276 0.055440772 0.035663135
000150 50 dd 8d 3c 7a f9 72 bd 6e ff 38 bc b6 bb dc 3d
       0.017317444 -0.05931995 -0.011291368 0.107779905
000160 8a 5a b6 bd 12 46 71 3b df 30 07 3e 34 d6 a3 3d
       -0.08903988 0.0036815447 0.13202237 0.079998404
000170 6e ca 3b bc 27 3b 91 3d dc 69 78 bc 10 3a 9f bd
       -0.011461837 0.070913605 -0.015161958 -0.077747464
000180 e2 b2 8f bc b4 ed 76 bd 8f 86 f9 3d 95 26 db bd
       -0.017541353 -0.060285285 0.12183868 -0.10700718
000190 18 fc 42 bb 4d 89 5a 3d 05 d2 10 ba 57 fc 4e 3d
       -0.002975231 0.053353596 -0.00055244594 0.05053362
0001a0 a4 51 14 bd 09 ec 41 3e c6 74 d9 bd c1 87 02 3d
       -0.03621067 0.18937697 -0.10617976 0.031867746
0001b0 90 bb 69 bd 2a 4d 79 bd 28 54 98 3b 2b 28 a9 3e
       -0.05706364 -0.060864605 0.004648704 0.33038458
0001c0 66 d9 25 bd 51 03 7a 3d ba 90 c8 bc 5d d7 a9 3d
       -0.04049053 0.06103832 -0.024483074 0.082930304
0001d0 46 11 8f 3d c7 c3 d8 3d 9b bb b2 bb 94 6c ad bd
       0.069857165 0.105842166 -0.005454493 -0.08467975
0001e0 b8 8d 47 3d ee b2 ca bd 9c 5f ad bd 4c f6 f1 bc
       0.048719138 -0.098974094 -0.08465502 -0.029536389
0001f0 55 da 12 be b5 34 8c 3d 40 17 d1 3d c6 b0 f3 bd
       -0.143411 0.068459906 0.10209513 -0.11898951

head.2.weight f4 [24, 128]
000000 df d0 fc 3d 7f b5 cc bd 53 ce e6 bd da 12 70 be
       0.123445265 -0.09995555 -0.11269822 -0.23444691
000010 80 fc cd bc 72 54 b3 3e 15 25 f8 ba 1b e8 df bc
       -0.025144815 0.35025364 -0.001893195 -0.027332356
000020 89 2b b4 3b 24 a1 db bc 11 4c 55 bb ca f5 c8 bc
       0.005498354 -0.026810236 -0.003254656 -0.024531264
000030 3b 98 d1 3d 5f 98 aa 3d 79 12 13 bd 49 82 06 bc
       0.10234114 0.08329844 -0.03590629 -0.008209773
000040 df 92 70 bb 74 b4 ba bc 7c a6 d6 3d 7d d5 1b 3d
       -0.0036708636 -0.022791125 0.10480973 0.038045395
000050 6c db 3b bd a0 51 ee 3c 2f 13 62 3d 6b 72 9e 3d
       -0.045863554 0.029091656 0.055194076 0.07736667
000060 bd e7 49 bd 74 26 12 3e 6c a5 f6 bd b6 39 48 3d
       -0.04929327 0.14272481 -0.120432705 0.048883162
000070 de 50 0c be 51 61 7a 3c 8f b1 6a bd 82 d8 06 bb
       -0.13702723 0.015281991 -0.05729824 -0.0020575826
000080 b5 94 85 39 a2 51 47 3e 48 06 9d 3d 4a ea 7a be
       0.00025478532 0.19464734 0.07667214 -0.24503437
000090 0c 0d a2 bc cc d6 b5 3d c6 35 92 bd cd 71 93 3d
       -0.019781612 0.0887886 -0.07139163 0.0719944
0000a0 e0 8b c7 bd f4 86 2b bc f5 ec a5 3d f4 5a 48 3b
       -0.09743476 -0.010469187 0.081018366 0.003057179
0000b0 e8 fc a8 3d d8 d5 a6 bd ee 82 df 3d 02 f7 8d be
       0.08251363 -0.08146256 0.10913645 -0.27727515
0000c0 d9 0d 74 3d 62 f7 44 bc 76 72 bd 3c 6a 1f 20 be
       0.05958352 -0.012021871 0.023125868 -0.15636984
0000d0 c5 8a 05 bd d2 aa c0 3c 00 42 27 be 13 ca 91 bc
       -0.032603044 0.023518953 -0.16333771 -0.017796552
0000e0 52 68 51 3d c0 64 97 3a f4 96 b7 bc 91 9f 2a bd
       0.05112488 0.0011550412 -0.022410847 -0.04165608
0000f0 e8 d9 d4 bc e6 09 8e 3d f3 52 14 3d a0 1a ac 3d
       -0.025982812 0.06935482 0.03621192 0.08403516
000100 2a 21 f7 3b cf de a1 be c4 bb 01 3e 92 23 14 bd
       0.0075417953 -0.31615302 0.12669283 -0.036166735
000110 e1 da b3 3d a4 42 da 3c 3e ad f9 3d 63 1f a8 3d
       0.08781982 0.026643105 0.121912464 0.082091115
000120 76 1d 21 3d d4 53 2d 3e 85 70 b1 b9 49 92 07 3e
       0.039334737 0.16926509 -0.00033843904 0.13239397
000130 b2 a5 7a 3d e7 fa 5c 3c 7f b9 38 be 71 c5 9c be
       0.061193176 0.013487554 -0.18039511 -0.30619386
000140 ec 91 2d 3d b5 17 27 3e 8d 81 48 3c a5 68 0d 3d
       0.04237549 0.16317637 0.012237919 0.034523625
000150 52 55 70 3d a4 8a a8 bd 45 2f f3 3d f8 25 af 3d
       0.058675118 -0.082295686 0.1187425 0.08552164
000160 65 90 41 3d c6 69 f7 bd a9 1b f0 bc d6 81 ca bc
       0.047256846 -0.120807216 -0.029310064 -0.024720114
000170 ce f9 20 3e 82 90 e8 bc 4b e9 ac 3d ed 58 94 3d
       0.15720293 -0.02838922 0.084429346 0.07243524
000180 9b 68 dc bc e5 b4 fb 3c 5a bf 4d 3d 3c 7e 1b 3d
       -0.026905349 0.030725906 0.050231315 0.037962183
000190 84 b7 8e bd 55 ef c9 bc 58 de 68 3d a0 e2 3f bd
       -0.069685966 -0.024650255 0.05685267 -0.046846986
0001a0 9d e1 bc bd eb a5 29 3d 84 5f 5b 3f 76 70 46 be
       -0.0922272 0.041417997 0.8569262 -0.19378838
0001b0 13 59 3a bc e1 73 2e 3c b7 a7 94 3d 1f bf c2 3e
       -0.011373776 0.010647745 0.072585516 0.3803644
0001c0 11 4c d7 3d 89 52 0f bb 0a eb 3c 3d 52 c6 44 3d
       0.105125554 -0.0021869263 0.04612259 0.048040695
0001d0 ad f4 21 bf 3b 2c 15 3e 3c 8f a3 3c 4b 2e 92 3d
       -0.6326397 0.14567654 0.01996576 0.07137736
0001e0 24 b9 6e bc 46 2a 4a 3c 3e 83 1c 3d de 17 17 bd
       -0.014570508 0.01233918 0.0382111 -0.036887996
0001f0 c8 7f f7 be 9c c6 4b 3c cc ad 80 3e 63 60 86 3d
       -0.48339677 0.012437489 0.25132596 0.06561353
000200 f5 2a 63 3d 9f 08 bf 3c 39 2e cd 3c a6 26 9d bd
       0.05546089 0.02331954 0.025046455 -0.07673387
000210 12 c0 35 bd 02 0e cd 3d 6b eb 50 bd 55 2c c4 3c
       -0.044372626 0.100124374 -0.051005762 0.02394692
000220 e2 bb 73 bd 8c 06 6f bb 37 28 e0 3a f9 4e 3f 3d
       -0.05950535 -0.0036472408 0.0017101829 0.046706174
000230 e0 23 0a 3e f3 67 86 bd 02 ca 91 be 3e 23 c2 3d
       0.13490248 -0.065627955 -0.28474432 0.09479378
000240 37 a5 07 3e b8 9e 8b be 33 c3 05 be 19 26 d9 3d
       0.13246618 -0.2726953 -0.13062744 0.1060297
000250 25 c2 54 3d 95 c4 5c 3d 9b f2 66 bc 53 8e ae 3c
       0.051942963 0.053898413 -0.014095928 0.0213081
000260 d4 5e 38 3d 3e 43 46 3e 10 e9 ac bd e3 4a 81 3d
       0.04501231 0.19361588 -0.08442891 0.06313112
000270 c5 38 55 3c 6c 61 0d 3d ad b2 90 bd 8a 81 88 3d
       0.013014023 0.034516737 -0.0706533 0.066653326
000280 62 94 75 bc 12 8b 31 3d 56 a2 23 bd 30 41 84 be
       -0.0149889905 0.04334552 -0.039949737 -0.25830984
000290 68 2a 23 bd 27 c4 0c 3d 29 e2 0d 3c c4 6b 80 3d
       -0.039835364 0.034366753 0.008659878 0.06270555
0002a0 72 d6 b8 bb 1e e2 be 3d 50 a6 0e bc 10 d6 d1 bc
       -0.0056407982 0.09320472 -0.008706644 -0.025614768
0002b0 72 a8 31 3d 47 a3 62 bd 06 26 a1 3d 2d 63 ec 3c
       0.043373533 -0.055331495 0.078685805 0.028855884
0002c0 1c e0 8f 3d 35 cc 7d 3d 94 f2 1b bd 8f b6 f4 bd
       0.07025167 0.061962325 -0.038073137 -0.11948883
0002d0 3e 5a 45 bd 75 6b 10 3d 9e 6b 9f bd 10 cd 88 bd
       -0.048181765 0.03525873 -0.07784198 -0.066797376
0002e0 6d 8b df 3c 93 f5 06 3d 6a 73 2e 3d 01 47 49 3d
       0.027288163 0.03294904 0.042590536 0.04913998
0002f0 bf fb bf 3d eb 21 67 3d 0d ef 52 3d 38 29 8f bd
       0.09374189 0.05642883 0.051497508 -0.06990284
000300 8e cb 9b bd 44 47 3b be 3b 07 90 3d a0 44 7c bd
       -0.07607184 -0.18288904 0.07032629 -0.061588883
000310 3e db c7 3c 84 8b a2 bb c6 c5 c0 bc 8c 94 b8 3c
       0.024396535 -0.004960479 -0.023531806 0.02253177
000320 be 17 66 bb 48 3b c0 3d 43 08 53 3d b1 84 a3 3d
       -0.0035109366 0.09386307 0.05152155 0.07984293
000330 29 00 84 3c 5f 35 5c bd 0d da 21 bb 20 02 94 bd
       0.016113358 -0.053761836 -0.0024696619 -0.07226968
000340 f0 20 f7 3d e8 98 37 3e a7 2a 9a 3d 29 a9 4c bc
       0.12066829 0.17929423 0.075276665 -0.012491503
000350 b7 e1 11 3d 20 b7 89 3c c6 33 55 3d 87 7b f0 3d
       0.03561565 0.016810954 0.052051328 0.11742311
000360 69 cd a5 3d 2d 88 71 bd c7 b0 26 bb 1e 42 c0 3b
       0.080958195 -0.058967758 -0.0025434957 0.005867257
000370 c5 4d f6 3d ac 75 0d 3d 0a 3a 46 3d 3f e0 81 bd
       0.12026552 0.03453605 0.048395194 -0.063416
000380 c6 57 ab 3d d8 63 4f bd af 33 c6 3d 68 e1 38 3d
       0.08366351 -0.050632328 0.096778266 0.04513684
000390 e7 9c 38 3d 53 38 bf bc 9a 8a b7 bd 45 0c 6c bd
       0.04507151 -0.023342287 -0.08961983 -0.05762889
0003a0 81 42 92 bd cc 0a 57 3c db 3d 85 3f 57 8c 62 be
       -0.07141591 0.013125133 1.0409502 -0.22123848
0003b0 bf 56 00 bd 88 d6 c4 3b 20 2e a5 3c 5d 56 cb 3e
       -0.031332728 0.0060070194 0.020163596 0.39714327
0003c0 6b 41 08 3e b2 16 e0 3c e9 c7 9e 3d ed 4e 92 3d
       0.13306205 0.027354572 0.077529736 0.0714396
0003d0 d1 20 6c bf 02 6a ed 3c 0d 38 35 3d b5 23 06 bc
       -0.92237574 0.028981213 0.044242907 -0.008187224
0003e0 e7 16 08 3d ab 33 4b bd 7a 1f a4 bd 82 1a b4 ba
       0.033224966 -0.04960982 -0.08013816 -0.001374081
0003f0 30 5f 9e be 59 66 ac bc 51 a3 3e 3e 47 6a 56 bc
       -0.30931997 -0.021044897 0.18616988 -0.013086862
